trained_model/ESPCN/model_demo.pkl (torch, 111927 bytes, 8 tensors)

weight f4 [64, 3, 5, 5]
00000000: 1347 f8bb 2afc 0e3d 1ce3 0b3b dd80 0a3d
00000010: 8732 013d 27c9 be3c 9f05 763d c12c 833d
00000020: 78aa b33c 75ee 0c3d 8c04 363d 9e17 823d
00000030: 6fe0 b93d 71a1 713d a6a4 703d 151d 653c
00000040: 314b 853c 2c22 a23d 9050 773d 4700 76bb
00000050: 39e5 413d 6f39 c53c 50f9 723c 2ba0 2a3c
00000060: 1efa 1a3c fa20 8aba 9304 ec3c 9af3 86bc
00000070: 14d3 fb3c 2781 efbb 33a1 11bc 28fb 4f3c
00000080: 6369 b23c 0f22 07bd 44f9 9c3b 2269 3d3d
00000090: 1f1f b63d 287d 633d 65b1 263d 2bdf 533d
000000a0: 028d 263d df0c 663c ff78 943d 8427 583c
000000b0: c509 85bc 9391 b7ba ad76 e63b 53a6 0bbc
000000c0: bb1e 063c c6ea 453b ca85 2b3d 63f7 6abc
000000d0: 51f9 dbba 7dcd 353c 024b 9c3c 9659 fc3b
000000e0: 12bf c33c e70d 57bb 6d55 173b 3334 c5bb
000000f0: 6650 0a3d 9e32 863d c2f9 7a3d 37d4 333d
00000100: 20ad 6ebc 8d53 013d a6b3 803d b0f0 b43d
00000110: 8f1d 933c 5944 2c3d ec77 273c d600 8c3c
00000120: 71c7 5abb f3a0 3c3c f0ec 123c d8b0 9fbb
00000130: cc12 633d 61be b33b efa8 7b3c fdb7 353d
00000140: f4b6 5a3d 2d81 9f3d 75b9 d33d 3e76 fa3d
00000150: 344a 75bb cdd8 fe3c e4d6 eb3c 4028 bf3d
00000160: 610f 223d 6daa b6bc 9432 0d3c 874c 003d
00000170: 60a1 243d f467 f23c 6962 1b3c 71cf 81bb
00000180: 7911 7c3c 8de9 37bb b759 e03b d99f 1abd
00000190: befd 7dbc a280 113c 01c0 c13c 0416 893b
000001a0: be7b cfbc e08d 1e3d ec02 8e3c 602a 893d
000001b0: b5ff a53d 67ca 0d3d 353d de3a 9d88 233c
000001c0: e3ab 173d b6e6 813d 19b8 bb3c cb78 783d
000001d0: 6e42 b63b ad64 6a3d 2bd3 73bc bfe2 b8bb
000001e0: 71c9 4d3b 682a e5bb 96f2 8ebb 5edc 313c
000001f0: d797 a53c 3b34 f6bc 566e b43c 6347 99bc
00000200: 36b7 a6bb a63f 12bc 255c 793a bcf2 183d
00000210: 6705 de3c 40e5 843d fd7d cc3c 6e2b a5bb
00000220: 2ea3 813c 3c2e ce3c f62e 3e3d eb29 b53c
00000230: e08e c4bb 2cd0 c33c 8f7b a33d 28a2 143c
00000240: 0e28 363c 31f0 d63c c485 15bb 8b6a 033d
00000250: fc29 af3a 17dd b9bc fa82 1cbd a1d0 d23b
00000260: ed8e 623a 0645 5d3c e827 58bc 44df c13c
00000270: 49f8 663d 6099 e23c 8c51 e23c d8e9 cd3c
00000280: 1767 71bb 9690 08bc ad63 8abd 290a 0b3c
00000290: 4a2a 5bbc fa38 063d 174f 7f3c 69de d43c
000002a0: d3a7 cb3b 1cb4 233d cacf d3bc a650 1a3d
000002b0: d780 933c ca41 4e3d e18d 543c 2e0c 583d
000002c0: 868b ae3c 193b c13c 66a3 ddbb 4a91 b83c
000002d0: 4ef8 e83c 3760 2e3d e468 0f3c 0f0d 21bd
000002e0: a468 d6bc 300e 143d cb97 95bc 33c0 57bd
000002f0: 84d9 d4b9 0f3d fa3b 9455 05bc dd7d 40bd
00000300: 3057 efbc 886c 113d 9b3f 143d 2c1b 253c
00000310: 5834 cd3c 9405 ed3b 761c ac3b 3e30 5f3d
00000320: 77d7 07bd cbf2 df3b e730 acbc c396 f93a
00000330: e236 1c3d 9067 2c3d 99ad dc3c 1c4a a4bc
00000340: ad97 693c 6edd 3e3c 1000 793a 2e39 c3bd
00000350: 0960 b4bd 90ce 1cbd 7e44 2cbb f4ed bc3c
00000360: d758 2dbd 6613 49bd a482 ee3b 081a 0f3d
00000370: 864d 693c 025a dc3c f9f8 483d 549f dd3b
00000380: 337b ae3c b173 103d 4825 0d3d d07b ef3c
00000390: f3ed b73a e01d b03c a743 c03d f4ce 7c39
000003a0: a8aa a8bd 4e80 ddba 6218 fcbb 1039 883b
000003b0: 615f cabd eeed b9bd 9ecd e43b 8e8c 95bc
000003c0: 3e6e 8fbc 4542 b93c 001a f1bc 0025 edbc
000003d0: bd8e 82b8 7532 993c bf3b 273d 52ee d23c
000003e0: 4abd e0ba 1415 d13c 8e14 0c3d 467f 833d
000003f0: 594d 413c 1db0 093d d95d adbb 831e 343d
-0.007576832 0.03490845 0.0021345085 0.0338143 0.031542327 0.023289276 0.060063954 0.064050205
0.021931872 0.034407098 0.04443793 0.06352161 0.090760104 0.058991853 0.05875077 0.0139839845
0.016271206 0.07916674 0.060379565 -0.0037536786 0.047337744 0.024075238 0.014829949 0.010414164
0.009459047 -0.0010538392 0.028810775 -0.01647358 0.030740298 -0.0073090973 -0.008888531 0.012694158
0.021778768 -0.032991465 0.004790457 0.04624284 0.08892655 0.05553928 0.04069652 0.0517265
0.04066182 0.014041155 0.07249641 0.013193015 -0.01624001 -0.0014005176 0.00703319 -0.0085235415
0.008186038 0.003019975 0.041875638 -0.014341208 -0.0016782676 0.0110963555 0.019078735 0.007701109
0.02389482 -0.0032814683 0.002309169 -0.0060181855 0.03376808 0.06552623 0.061273344 0.043903556
-0.014567643 0.03157382 0.06284265 0.0883497 0.01795843 0.04205737 0.010221463 0.017090242
-0.0033383036 0.011512983 0.008967623 -0.0048733763 0.055437848 0.0054853414 0.015360101 0.044364918
0.053397134 0.0778831 0.103381075 0.12229584 -0.0037428262 0.031109238 0.028788991 0.09333849
0.039565448 -0.022298062 0.008618016 0.031322982 0.04019296 0.029590584 0.009483912 -0.0039614965
0.015385025 -0.002806279 0.0068466323 -0.0377501 -0.015502391 0.008880766 0.023651125 0.0041835327
-0.02532756 0.03870952 0.017335378 0.066975355 0.08105413 0.034616854 0.0016955497 0.009981302
0.03702916 0.06342833 0.022914933 0.060662072 0.0055621183 0.05722492 -0.014881889 -0.0056422646
0.0031400586 -0.0069935806 -0.0043624146 0.010855762 0.020214004 -0.030054202 0.022025269 -0.018710798
-0.0050877584 -0.008926308 0.0009512327 0.037340865 0.027102185 0.064890385 0.02496242 -0.0050405776
0.01582488 0.02516853 0.046431504 0.022114715 -0.0059984773 0.023902975 0.07982551 0.009071864
0.011117948 0.026237579 -0.0022815326 0.03208403 0.0013363953 -0.022688432 -0.038210846 0.006433562
0.00086425134 0.013505226 -0.013193108 0.023666032 0.056389127 0.027661026 0.027626775 0.02513592
-0.0036835128 -0.008335253 -0.06757293 0.008486309 -0.013376782 0.03276918 0.015582821 0.02598496
0.0062150746 0.039966688 -0.025855917 0.03767457 0.018005772 0.05035571 0.01297328 0.05274599
0.021306764 0.02358775 -0.0067638634 0.022530217 0.028438713 0.042572226 0.008753035 -0.039319094
-0.026172943 0.036146343 -0.018260857 -0.05267353 -0.00040597853 0.0076366733 -0.008138079 -0.046995033
-0.029216379 0.035503894 0.03619347 0.010077279 0.025049374 0.007233331 0.0052524162 0.054489367
-0.033164468 0.006834363 -0.021019412 0.0019042123 0.038138278 0.042090952 0.026938247 -0.02005487
0.014257354 0.011649473 0.00094986055 -0.095323905 -0.0880738 -0.03828293 -0.0026285942 0.023062684
-0.042321052 -0.049090765 0.007278757 0.034936935 0.014239674 0.026898388 0.049065564 0.006763378
0.02129898 0.035266582 0.034459382 0.029233843 0.0014032706 0.02149862 0.09387904 0.00024109689
-0.08235675 -0.00168992 -0.0076933363 0.004157193 -0.09881473 -0.090785846 0.0069825193 -0.018255498
-0.017508622 0.022614608 -0.029431343 -0.028948307 -6.22547e-05 0.018700818 0.040828463 0.025748406
-0.0017146256 0.025522746 0.03419929 0.0642076 0.011798226 0.03361522 -0.0052907285 0.04397441

bias f4 [64]
00000000: 4299 fd3c 8051 c33c 57c9 473d a9e2 6e3d
00000010: 4bcd c53d ff8e 973c 1579 503c 0e37 ed3d
00000020: 5332 f13a 6337 a63c 2ec5 e13d 286d 713c
00000030: 1d8c 343c 7dac 603d c769 b33c 6c9f b63d
00000040: 3dc7 413d 764b 4b3d 4ee7 9c3d 6144 393c
00000050: 1adc eb3d b47e ce3b 703f 853c bd0a c73d
00000060: ecc6 363d 877b 4d3d 24c4 c73a 9ecd 463d
00000070: 81f6 793d b19c 4f3d 7724 2f3c b7b3 8b3b
00000080: 5cd5 5e3d 7d65 ce3d 363b 29bb cc4d 773e
00000090: d66d 4f3d 0171 283d 4586 713d 8a94 c83c
000000a0: 2436 833d e01a 553d a0d0 9139 c074 4f3d
000000b0: b68d 6e3d 3484 4e3d d389 133e 89c8 f2bb
000000c0: 3dac 023e 5f4e 293d c409 973d 3069 ae3c
000000d0: 8954 593d 4d56 ba3d 566a 843d 5f36 d53d
000000e0: f4fe 363d eecf 7c3c 7aed c73d a6f6 833c
000000f0: 1585 a93d f686 163c b11c 253c 3af8 f53c
0.030956868 0.023842573 0.048775997 0.05832163 0.09658297 0.018500803 0.012724181 0.115827665
0.0018401839 0.020290082 0.11023937 0.0147354975 0.011019734 0.054851998 0.021901025 0.08917126
0.04730915 0.049632512 0.07661305 0.011307807 0.115165904 0.0063017253 0.0162656 0.09718845
0.0446233 0.050166633 0.001524095 0.048535936 0.0610261 0.050686542 0.010689846 0.004263367
0.054402694 0.10077951 -0.0025822646 0.24150771 0.050641857 0.041123394 0.05896594 0.024484891
0.06406811 0.052027583 0.00027811993 0.05064845 0.058240615 0.050419047 0.14408045 -0.0074091596
0.12761016 0.041334506 0.073749095 0.021290392 0.053059135 0.09098492 0.064655945 0.10410761
0.044676736 0.015430434 0.09762092 0.016108822 0.082773365 0.009187451 0.010077641 0.03002559

weight f4 [32, 64, 3, 3]
00000000: a6d8 e33c 2a10 6c3c 06e9 453d 9a94 d23c
00000010: d0c1 6f3b 29df 0f3d 4886 e33c 48c9 3a3d
00000020: 9fd2 bc3c 37d0 5b3c dd26 d03c 9d56 493c
00000030: 1509 e23c 1262 d33c 2e86 783c d80f 643d
00000040: 4397 083d bb3f 663d 21f4 fc3c 853d 22bd
00000050: 72cd 59bc 6674 a23b f9a8 66bc f3a5 35ba
00000060: d132 c13c 22db 703d 48d2 063e 7db1 46bc
00000070: 299a e2bd b50f fbbc 552d 6cbd a42a 48be
00000080: c389 d3bd 4b7a 47bd 2527 14be 28fd 523c
00000090: 2d55 21bd 2094 22be a0e4 0cbc 0e42 373e
000000a0: 663c 0fbc 1579 acbd 9422 1b3e f948 d63d
000000b0: c986 923a d3d3 ef3c dd32 7a3d de29 d33c
000000c0: ea2d d23c 7434 8e3b abeb 803d ffc1 c03d
000000d0: cb1f 5e3c 220e 773c 3f93 10bb fa15 0c3d
000000e0: a580 cb3c 5236 3a3c bfe7 c33d 2a3f 803d
000000f0: f666 fe3c 49d9 9c3d dffb 253d c2ff 963c
00000100: 71cb 39be 5a41 04be 0cc4 05be 65be d2bd
00000110: c3b1 21bd 5b2d e9bc 7018 8a3c 4d69 603d
00000120: 4452 9d3c 8ed2 273d ba72 423c e91f 6f3c
00000130: 5ac5 3bbc 80c4 f63c 0746 783b 7a7e 593d
00000140: 2b3c 903d 7c76 6f3d b2df c33d 2efb b03c
00000150: 9b5d 813c 0c43 693d 3a91 8e3d 6949 9e3c
00000160: f84b b23c 800e 263d ea2d e9bc 8fe4 dbbd
00000170: 5253 c63c 7d4a 1d3d 4a70 1cbe 902e 6f3c
00000180: da09 183e 822b 483d 90aa 213e 1f92 bbbb
00000190: 7d84 fd3c 58a9 913c 7206 f73b 643d f83c
000001a0: 7950 a13d 05ec 82ba 2630 4c3d 505a 683a
000001b0: 7a47 43bc f25e 043d 42e8 3e3d 65cd e33b
000001c0: b241 163c 5f4b c3bc 6fdc 763d 42f5 2d3b
000001d0: 807b 033d 8dfc 8d3b de2a 35be 4626 83bc
000001e0: 19ab 4a3d c601 32be b045 cebc 68ed 843d
000001f0: e0b1 b4bd 0211 78bd 542f 383d 6393 6f3d
00000200: 999e 533d eaa7 193d 3cf3 853d 4bc8 1a3d
00000210: 4776 303d 629c 51bc 82b0 b13c 69a5 77bd
00000220: 33b0 a5bd 877c 04bc 720e abbd 4d17 1fbe
00000230: c807 abbd 2b1f 2e3c 3067 3f3b 53d2 a2bc
00000240: deb3 3ebd b6d8 09be 569f f7bd 89e6 07be
00000250: ad6a 7ebe 8488 89bd 613c a1bb d18b 2dbd
00000260: 6528 553d e92a 1b3d c7d4 2d3d 0018 d93c
00000270: 0584 043d 8b97 d33d 950b 573c fff1 a33c
00000280: 2712 9d3d 8877 783c b9a2 13bd 453f 4cbc
00000290: a13d 06bc 4e5e 10bd d69b 473d b3ee ca3d
000002a0: 1bd1 c43c ce88 ad3d d630 083e b9aa c13c
000002b0: 199f a13d e797 6d3c ec60 1e3d f448 bb3d
000002c0: 94d0 dd3c dbbb 94bc dd4d da3c f60f 693d
000002d0: 1f47 babd 9b10 03be fceb 6cbd 2a15 95bd
000002e0: 12a8 e0bd afa3 1bbe 3257 e8bc b7d6 8cbd
000002f0: fcd9 c6bd 49e8 b8bb 146d 513c 8172 9f3c
00000300: d828 fc3c 9947 e73c f47d da3c c896 473d
00000310: cd1e 7f3c 50a1 8ebb 633a c83c 9e04 483d
00000320: a421 343d 4ff6 4e3d 25c3 8a3d 3f0a cf3b
00000330: c2e9 633d 0593 653d 9c18 603c d116 d13d
00000340: b005 5dba 7589 5c3e dd64 11bd 6c80 e8bd
00000350: f20e b93d 0c57 6a3d 63bd 25bd 2c60 abbd
00000360: 2538 a3bd 3ee1 1cbe e85c cfbb 0fbf fcbd
00000370: 07f2 61be 1b54 70bd 559e 46bd 81b4 3ebe
00000380: fd86 93bc 7aee 8bbd a296 a6bd d3a7 443d
00000390: 0573 74bd 051b 39be a951 9ebc 6c8b 363d
000003a0: 4e75 083d 9df4 c53d 07f0 c13c 1d2c ec3c
000003b0: 7de3 e13c 0e99 343d 2f31 f23c 04cc fa3b
000003c0: cbef 56ba 48bd 213d 9bad 113d 8ba5 3ebd
000003d0: f3ba 0dbd 4bad d8bb 08d9 1dbd a4e1 9cbc
000003e0: e7c9 6fbd b32d fbbb 41fb 883d 9f62 f03c
000003f0: 52ac 50bd 9b7c c0bd 9150 e6bc 268e 45bd
0.027813267 0.014408151 0.04831793 0.025705624 0.0036584027 0.03512493 0.027773991 0.045602113
0.02304965 0.0134163415 0.025409156 0.012288717 0.027592221 0.0258036 0.01516871 0.055679172
0.03334738 0.05621312 0.030878128 -0.03960945 -0.013293611 0.0049577234 -0.014078372 -0.00069293304
0.023583801 0.05880273 0.13166153 -0.012127277 -0.1106456 -0.030647138 -0.05766042 -0.19547516
-0.1032901 -0.048700612 -0.14468057 0.01287774 -0.03938787 -0.15876818 -0.00859943 0.17896292
-0.008742427 -0.08421532 0.1514991 0.10463137 0.0011179085 0.02927581 0.061083663 0.0257768
0.02565666 0.004339749 0.0629495 0.09412002 0.013557385 0.015079053 -0.0022060422 0.034200646
0.024841616 0.01136549 0.095656864 0.062620476 0.031054955 0.07658631 0.040523406 0.018432502
-0.18144013 -0.12915555 -0.13063067 -0.10290221 -0.039476167 -0.02846401 0.016857356 0.054787923
0.019204266 0.040972285 0.011868173 0.01459501 -0.0114606265 0.030122995 0.0037883536 0.053099133
0.07042726 0.058462605 0.09564151 0.021604147 0.015791705 0.056948707 0.069612935 0.019322114
0.02176474 0.040541172 -0.028464276 -0.107369535 0.024209652 0.038401116 -0.1527721 0.014598504
0.14847508 0.048869617 0.1578772 -0.005724206 0.030946964 0.017780945 0.00753861 0.03030271
0.07876677 -0.0009988552 0.049850605 0.0008863555 -0.011918897 0.03231711 0.046608217 0.006951975
0.009170936 -0.02383965 0.060268816 0.002654389 0.0321002 0.004333085 -0.17692134 -0.016009461
0.049479578 -0.17383489 -0.025179714 0.06490594 -0.088229895 -0.060563095 0.04496701 0.05849017
0.051664922 0.03751365 0.06540534 0.03778867 0.043081548 -0.012793632 0.02169061 -0.06046048
-0.08090248 -0.00808633 -0.083523646 -0.15536232 -0.083510935 0.010627548 0.0029205792 -0.019875681
-0.046558253 -0.13461575 -0.12090938 -0.13271536 -0.24845381 -0.067154914 -0.004920528 -0.042369667
0.052040476 0.03788272 0.04243925 0.026500702 0.032352466 0.10331639 0.01312532 0.020012854
0.07669478 0.015165217 -0.036043856 -0.0124662565 -0.008193404 -0.035246186 0.0487326 0.099088095
0.02402549 0.08473359 0.1329988 0.023640977 0.078916736 0.014501548 0.03866665 0.09144774
0.027076997 -0.018155983 0.026648456 0.056899987 -0.090955965 -0.12799303 -0.05784224 -0.07279427
-0.10969557 -0.15199159 -0.02836189 -0.06876891 -0.09709546 -0.005642925 0.012782354 0.01946378
0.030781195 0.028232383 0.026671387 0.04872778 0.015571308 -0.004352726 0.024441903 0.04883253
0.043977395 0.050527867 0.06775502 0.00631836 0.05564285 0.056048412 0.013677742 0.1020943
-0.00084313285 0.2153681 -0.03549658 -0.113526195 0.09036054 0.05721192 -0.040463816 -0.08367953
-0.07969693 -0.15320298 -0.006328214 -0.12341129 -0.22064982 -0.05867396 -0.04849084 -0.18623544
-0.018008703 -0.06832595 -0.081342 0.048011612 -0.059680004 -0.18076713 -0.019326048 0.044566557
0.033314995 0.09665797 0.023674024 0.028829629 0.027574295 0.044091277 0.029564468 0.007653715
-0.0008199184 0.039487153 0.035565954 -0.046544593 -0.034602117 -0.006612455 -0.038537055 -0.019150563
-0.05854216 -0.00766536 0.06688548 0.029343901 -0.050945587 -0.093987666 -0.028114589 -0.048231266

bias f4 [32]
00000000: e47b 953d 580a 8dbe b3ab 843d 9aa4 923d
00000010: 07c4 a6be 6373 0dbc 77de 6b3d ccd7 fe3d
00000020: 656f 9f3a 8bbf 8b3d 7d60 33bc 4d8f 8a3d
00000030: 6eab febc 7874 35ba ffe1 a5bb 9ada 293d
00000040: 84a3 b3bc e542 ec3c d070 edbb c106 6e3d
00000050: 933d 503e b5a6 823d 88cd ac3b 3485 923d
00000060: 1da6 913d be86 793d 0d68 0bbc ccf9 97bb
00000070: 61f9 093c c0ce 8c3d 38a0 3fbb 4e8f d23d
0.07299021 -0.27546954 0.064780615 0.071603015 -0.32571432 -0.008633467 0.057585206 0.12443504
0.0012163935 0.06823643 -0.010948298 0.06765614 -0.031087603 -0.0006921957 -0.005062341 0.04146824
-0.021928556 0.028840492 -0.0072461143 0.05811191 0.20335989 0.06379453 0.0052735247 0.07154313
0.07111762 0.060919516 -0.008508694 -0.0046379324 0.008421273 0.06875372 -0.0029239785 0.102812394

weight f4 [12, 32, 3, 3]
00000000: 6323 02bd 55b5 a43b 74eb 8fbd 71e9 0a3b
00000010: fa49 663d 4810 193d 521e 7bbd 3dea 43bb
00000020: 46f1 f5bb 7cf3 9c3d 9e9c 103e b53c 043e
00000030: 17b5 273e 4441 3a3e ca54 5c3e ce70 b53d
00000040: 42f8 c43d 9d17 483e 91ce b73d 75aa e03d
00000050: a4ad 903d 297d 043e bbc5 133e 453f 993d
00000060: 5ea0 8c3d 8e39 8c3d 822a 733d 62a4 c03c
00000070: 5fec ed3c 6188 32bd 3320 f83c 1af1 fe3d
00000080: 2deb 9e3b e161 cebc ee6d 3e3d 928f bcbb
00000090: 9331 8b3d 14ca 823d 4f42 163d 7b08 353e
000000a0: 3fe8 3e3e 812e 073e 45db 683d 2016 2c3e
000000b0: 7d3c 1a3e 1d31 8bba 07e1 c2bd de1f 863d
000000c0: fde9 2abe caeb 71be 57f0 223c 73a3 e63c
000000d0: 3d92 20bd b8b7 893d e962 48bc c326 693d
000000e0: c6bf 5bbd c3a4 223d 0263 d93d 926b b43c
000000f0: e719 973c 0473 913a e3cc 693c 3f8f edbd
00000100: 29c9 8e3c 8386 e8bd b48f d23c 8367 523e
00000110: 12a0 39bd 0425 40bd 9b68 023d 16e0 b4bd
00000120: c070 cebd 72cf 18be d0a0 a9ba 8efb 2cbe
00000130: 4b3a 88be 5981 b5bd 13e3 dbbc f0df 9ebd
00000140: 6a23 ebbc 38a0 6e3d d496 493d dab2 9b3d
00000150: 2b75 593d c967 c73d c8fc 6d3d f2d3 fa3c
00000160: 9c73 653d 7927 373d 9e01 2b3c b0b3 b63b
00000170: 56b2 563d bdab ecbb 9c46 4dbd 540b 6fba
00000180: 6f06 4a3d aebe 313d 3f8a 523d 24f9 4a3c
00000190: 43bd 5a3d fae8 a3bc 9dfa 493d 5c11 a33d
000001a0: 4765 013c d480 fcba a6d8 af3c 3354 5dbc
000001b0: 84b6 513b 491a 52bc 925c b23d 3e7b e1bc
000001c0: 2662 05be 5c68 b3bc 054b 893d b9e5 fc3b
000001d0: b9d6 a83d 7860 78bc 8883 85bc f406 2b3b
000001e0: 7a93 c8bc 6554 c93b 7022 7ebc 6b69 f339
000001f0: 1986 2d3c 5c0a ff39 757f 2dbd c4ad 07be
00000200: 7225 063d ba2f acbd b8fd 63be 2c24 5cbd
00000210: 035d 763d 41b5 26bd 558c 613d 0297 04bd
00000220: a020 0c3b 18a0 f2bc b828 373d a94d f33d
00000230: 5f90 7d3c 952b c2bc 308d f63c 9460 2ebd
00000240: d80c 5fbd db76 ddbd e1f4 873d d9d0 b3bd
00000250: af0f 6fbe d05a bc3c 82b7 0c3e c179 353d
00000260: 2ace d63d 05ee c8ba d761 313d e507 e33b
00000270: f617 b33c ab80 fc3d 1eb1 783d 885f 6fbb
00000280: 6a3a 913c 666a 803c 680b c5bc 9029 2bbe
00000290: 79dd 383d 017e f4bd 6430 77be 556b 3abd
000002a0: 5787 1f3c 6979 18bd 51b6 113d 99dc b4bc
000002b0: 6868 e3bb 8b94 77bc 158f 0d3c fd4e ba3c
000002c0: 87c0 f1bc 953e 30bd 5979 473c 5a60 24bd
000002d0: 76ea 2c3e 3804 203d 8bab 6fbd e700 373e
000002e0: 8cae cf3d 2317 aabd 8ee6 67bd bb53 07be
000002f0: c0b9 1dbe f531 283d 6c4f e53d 9656 823d
00000300: b822 993d 0a7a be3d f905 303d bc3f 4c3d
00000310: d208 db3d 86be 103d e85f d7bd 834b f9bd
00000320: bfd2 1bbd 3f0a 48be e1d5 6ebe c6d4 55bd
00000330: 653d 0cbd f15d 59bd bf18 fc3c aa3c 1abc
00000340: ad0e de3c 6d72 fcbc b6a5 1e3d 2723 893d
00000350: ec4f ae3c 2ebb 9fbd 4d4a 813b d556 5cbc
00000360: 50d5 b2bc 8b7c c03b d906 1bbd 926a 923c
00000370: 5642 663d eeac 8eb8 4599 28bc 056c d7ba
00000380: ae73 8abc 941c 893d 0572 8d3d b766 513d
00000390: 460c 993d a644 c33d 01a1 bd3c 2ece 353d
000003a0: 5f53 683d 3e03 c73c 3458 adbd be20 18be
000003b0: cc16 963d 3d1e e3bd 9929 88be eb14 00bd
000003c0: 4e68 f03d 55be 7f3d a0cf 963d a3bc c3bd
000003d0: b8da 1abe 1c53 1abc 5e8b 2cbe 5549 72be
000003e0: 0092 79bc 4574 5d3d 17f1 0abd e5d7 5e3d
000003f0: d24b c5bd 2eaf 3ebe fa14 10bd 39cf 49be
-0.03177203 0.0050264993 -0.07027331 0.002119627 0.056222893 0.037369043 -0.061308213 -0.0029894256
-0.0075055687 0.076636285 0.14122245 0.12913783 0.16377674 0.1818896 0.2151672 0.088594064
0.09617664 0.19540258 0.08974946 0.10970012 0.07064369 0.1293837 0.14430897 0.07482771
0.06866525 0.06846915 0.05936671 0.023515884 0.029043375 -0.043587092 0.030288791 0.1244833
0.0048498125 -0.025193157 0.046491556 -0.0057544196 0.06796565 0.063861996 0.03668433 0.17679016
0.18643282 0.13201334 0.056849737 0.16805315 0.15062137 -0.0010619495 -0.09515577 0.06549047
-0.16690822 -0.23625103 0.009944997 0.02815411 -0.039201964 0.06724495 -0.012230613 0.05692173
-0.053649686 0.03970791 0.10614587 0.02202395 0.018444968 0.0011096899 0.01427004 -0.11599588
0.017429905 -0.11353781 0.025703289 0.20547299 -0.04531867 -0.0469103 0.03183804 -0.088318035
-0.10080099 -0.14922884 -0.0012941603 -0.16892835 -0.26606974 -0.08862562 -0.026841676 -0.077575564
-0.02870341 0.058258265 0.049216107 0.076024726 0.053090256 0.09736592 0.0581024 0.030618642
0.056018457 0.04471538 0.010437397 0.0055756196 0.05241617 -0.0072226212 -0.050116166 -0.00091188145
0.04932254 0.043394737 0.051401373 0.012388501 0.05340315 -0.020008553 0.04931127 0.079622954
0.007897682 -0.0019264468 0.02146561 -0.013508844 0.0031999657 -0.01282365 0.08709063 -0.027524587
-0.13025722 -0.021900348 0.06703762 0.0077178148 0.0824408 -0.015159719 -0.01629807 0.0026096674
-0.024484385 0.006144094 -0.01551114 0.00046427114 0.010591053 0.00048645108 -0.04235788 -0.1324988
0.032750554 -0.084075406 -0.22264755 -0.053745434 0.060147297 -0.0407002 0.05506547 -0.032370575
0.002138175 -0.029617354 0.044716567 0.11880047 0.015476315 -0.023702422 0.03009662 -0.042572573
-0.054455608 -0.108136855 0.06638504 -0.08780069 -0.23345827 0.022992522 0.13741878 0.044305567
0.104885414 -0.0015329724 0.043306198 0.0069284313 0.021862011 0.12329229 0.060715787 -0.0036525447
0.01772805 0.015675735 -0.02405329 -0.16715074 0.045133088 -0.11938096 -0.24139553 -0.045512516
0.009736857 -0.03722516 0.03557426 -0.022077845 -0.0069399364 -0.015111099 0.00864007 0.022742743
-0.02951075 -0.043028433 0.012174928 -0.04013095 0.16886315 0.039066523 -0.058513205 0.17871438
0.10140714 -0.08305194 -0.05661636 -0.13215534 -0.15402889 0.041063268 0.11196789 0.06364171
0.07477325 0.09300621 0.042974446 0.04986547 0.10695042 0.035337947 -0.105163395 -0.12172606
-0.03804278 -0.19535159 -0.23323776 -0.05220487 -0.034238238 -0.053068105 0.030773519 -0.0094138775
0.027106607 -0.030816281 0.038732253 0.06696158 0.021278344 -0.077993736 0.003945625 -0.013448437
-0.021830231 0.0058742217 -0.037848327 0.017873082 0.056215607 -6.803298e-05 -0.010290449 -0.001643539
-0.016900863 0.06694904 0.06906513 0.051123347 0.07473044 0.09534578 0.023148062 0.04438608
0.056720134 0.024293538 -0.08464089 -0.1485624 0.07328567 -0.11089752 -0.26594236 -0.03126995
0.117386445 0.062437374 0.0736382 -0.09557464 -0.15122497 -0.009419229 -0.1685004 -0.23660786
-0.015232563 0.05406596 -0.033921327 0.05440511 -0.09633602 -0.18621513 -0.035176255 -0.19707955

bias f4 [12]
00000000: bfd7 b43d f2e5 af3d 0ccc b73d 3a16 1a3e
00000010: d68e 0ebc f786 6e3c c814 30bc 2787 a53d
00000020: 3e17 fe3c 20a9 8c3d 9a26 a5bc 12ec 15bc
0.08830213 0.085887805 0.08974466 0.15047541 -0.008701047 0.014558545 -0.010747142 0.08082419
0.031016942 0.068681955 -0.020160008 -0.009150522

weight f4 [3, 3, 1, 1]
00000000: d35f 53bd 704c f43d 2322 143e 23ed 7f3d
00000010: d6ab ae3c 2873 1f3d 4819 3b3e 666d 94bd
00000020: 96da 77bd
-0.051605057 0.11928642 0.14466147 0.06248201 0.021322172 0.03892818 0.18271363 -0.072474286
-0.060511194

bias f4 [3]
00000000: 59db ffbf c3c6 ecbf 794e 04c0
-1.9988815 -1.8498157 -2.0672896
