trained_model/ESPCN_modified/model_demo_01.pkl (torch, 557997 bytes, 14 tensors)

weight f4 [64, 3, 5, 5]
000000 d9 28 89 bc 6f c7 53 bc 0f 2f 36 bc 69 b6 cf bc
       -0.01674311 -0.012925967 -0.011119618 -0.025355535
000010 31 ed ce 3c 10 43 4e 3c c3 77 54 ba 5d ee 24 3c
       0.025259586 0.012589231 -0.0008105004 0.010066596
000020 83 4f 33 3d 3f 9c 2e 3c d0 b2 0b 3d df d2 f1 3c
       0.043777 0.010657369 0.034106076 0.029519496
000030 23 0b 2d bc 3b 3d 85 3c e8 b9 a1 3c 35 90 ba bb
       -0.010561737 0.016264549 0.019741967 -0.0056934603
000040 fe ca 9d 3a bb ec c1 ba 06 0f d7 ba 0b 0d 3b 3b
       0.0012038646 -0.0014795283 -0.0016407676 0.002854171
000050 02 e3 9e 3b f2 92 7e bd 8f c1 24 bd bf 23 a0 3c
       0.004848839 -0.062151857 -0.040223654 0.019548295
000060 cf 62 2a 3d 5b e2 b6 3c 5d dc 82 bd 1d 66 c7 3b
       0.041598137 0.022324732 -0.06389687 0.006085171
000070 a2 30 1c 3c d2 05 01 3d 0c 69 fe 3b 66 67 92 bb
       0.009533079 0.03149969 0.0077639874 -0.0044678925
000080 12 e9 68 3c 9f f0 86 3c c1 ce ed 3c 27 a8 12 bc
       0.014215725 0.016472159 0.029029252 -0.008951223
000090 d6 a9 24 3d e9 54 ac 3c 44 01 78 3b 3c 3f 2d 3d
       0.04020103 0.021036582 0.0037842551 0.042296633
0000a0 7d a8 d0 3a b0 cb 38 3c 39 1d 2a 3c cc d0 12 3d
       0.0015919354 0.011279032 0.010382944 0.035843655
0000b0 7c 82 21 3d ef d6 b3 3b 56 31 20 bb 4d e2 09 bb
       0.03943108 0.0054882686 -0.002444347 -0.0021039427
0000c0 e1 d2 a0 bb ba 6e 10 bd 3a 44 aa bc ad fe bb bc
       -0.004907951 -0.035261847 -0.020784486 -0.022948587
0000d0 fd f7 1b 3d f3 40 b4 bb 20 ae ca 3c 8a c4 3b bc
       0.038078297 -0.0055009066 0.024741232 -0.011460433
0000e0 d4 6b ee 3a 84 8a 29 bc ae 67 21 bc 6c cf 28 3d
       0.0018190094 -0.010347966 -0.009851379 0.041213438
0000f0 9e 08 93 bc 94 cc 1a 3c 08 4a 45 3d c2 84 18 3d
       -0.017948445 0.009448189 0.048166305 0.037235983
000100 37 ae d9 3b a5 03 a1 bc 13 41 06 bc ce 42 6b 3c
       0.0066430825 -0.019655058 -0.008194226 0.014359189
000110 23 91 24 3c 5c 53 74 bc da 4d aa bc dc 72 b7 ba
       0.010044369 -0.014912453 -0.020789076 -0.0013996023
000120 5e 92 f4 bc e5 8a 45 bc c6 de 52 3b 6c 9b 55 3b
       -0.02985495 -0.012057041 0.003217624 0.003259386
000130 6c 26 00 3c 8d 55 f6 ba a2 04 48 bd d3 05 52 bd
       0.0078216605 -0.0018793807 -0.048832543 -0.051275086
000140 9e c2 81 3d 5a 91 3f bd 05 6f 4b 3d f2 bc 56 3e
       0.063359484 -0.046769477 0.049666423 0.20970514
000150 b7 ba ae bd 73 c2 02 3e 45 a2 dd bc 32 ec 5d bd
       -0.08531707 0.12769489 -0.027054915 -0.05418033
000160 31 c8 14 3e 9f a4 31 bd 73 ef 5e 3d 64 2b 36 3e
       0.14529492 -0.043369886 0.054427575 0.1778999
000170 ab 66 75 3d c3 1f 57 bd 3d b8 69 bc 73 0f cb ba
       0.059912365 -0.052520525 -0.014265117 -0.0015492275
000180 1c 69 d8 bc 17 6c 1d 3d 3d ed 87 bc e9 4e 38 3d
       -0.026417308 0.03843316 -0.016592616 0.04499713
000190 78 ba 69 3b c0 d5 fd 3c f4 ed c6 bc b6 24 5f bd
       0.0035664123 0.030985713 -0.024283387 -0.05447837
0001a0 d0 37 b4 bb 48 61 b7 3d 82 3b 71 bd 2a 6a 04 3d
       -0.0054998174 0.08954102 -0.05889464 0.03232781
0001b0 a2 a9 f9 3d cc 0b 92 bd f9 b8 8c 3d 76 89 f9 bd
       0.12190558 -0.07131156 0.06871218 -0.12184422
0001c0 29 05 0e be 44 47 d3 3d c4 92 9e bd 64 7c 8a bc
       -0.13869156 0.10316327 -0.07742837 -0.016905017
0001d0 36 e7 01 3e e6 ee d0 bb 59 46 69 bd cc 95 17 bd
       0.12685856 -0.006376135 -0.056951854 -0.03700809
0001e0 82 93 71 bc 3a a9 a0 3b 63 6f 8f bc 3e 65 1c 3c
       -0.014744641 0.004902986 -0.017509168 0.009545622
0001f0 92 2b ec 3c 09 1c e6 3c 90 65 85 3d 0b cb 13 3d
       0.02882937 0.02808954 0.06513512 0.03608231
000200 db 73 4c bd 99 59 43 3b 41 c8 44 3d 2a b1 0c bd
       -0.049915176 0.0029808043 0.04804254 -0.034348644
000210 90 3e c0 3b a3 a3 1c 3e 3a 94 8a bd c1 86 92 3d
       0.005866833 0.15296797 -0.06766553 0.071546085
000220 cf 74 15 be c5 0a 01 be 61 a4 b2 3d af 67 85 bd
       -0.1459534 -0.12601765 0.08722759 -0.06513917
000230 88 c5 3e 3c 37 6b 74 3d 8f 14 35 bc 50 86 27 bd
       0.011643775 0.05967256 -0.011052265 -0.040899575
000240 26 ab fb 3c d5 f5 36 bd 5d 1c 41 bd 9f 5b 9f b9
       0.030721258 -0.044668037 -0.04714619 -0.00030395106
000250 1f 50 18 3c e4 b3 86 3d 02 2f ed bc 96 ca 1c 3c
       0.009296446 0.0657728 -0.02895308 0.009569785
000260 56 96 f1 3a 53 29 a3 b9 8a c1 08 bc 3e c5 b7 3c
       0.0018431644 -0.00031120572 -0.008346925 0.02243292
000270 49 45 14 bd f3 6e 39 3b 2c 59 df 3b 22 11 aa bc
       -0.036198888 0.002829489 0.00681605 -0.020760123
000280 06 1b 14 3c aa 49 46 3b 57 e6 ea 3c c7 1c 8c 3c
       0.009039646 0.003025631 0.028674288 0.017103566
000290 f6 e3 1b 3d 11 cb 00 3c 04 cb 9c 3c a0 e7 4e bc
       0.038059197 0.007860915 0.019139774 -0.012628466
0002a0 72 79 3a 3b ee 72 8c bb 38 db 54 3c 76 70 d2 3a
       0.0028453735 -0.0042861616 0.012991719 0.0016055244
0002b0 cd 0a e4 3b a6 07 cf 3c a1 d2 be bc 53 d4 c6 bc
       0.0069592954 0.025272202 -0.023293795 -0.024271166
0002c0 67 c7 09 bd c2 47 8d ba 96 7b 76 bb fd 89 ca 3b
       -0.03363743 -0.0010778832 -0.0037610284 0.0061810003
0002d0 72 e0 0f 3d a6 5d 92 bc 61 8b fd 3c 0d a8 95 3c
       0.035126157 -0.01786692 0.03095025 0.01826861
0002e0 60 5c b6 bc c7 73 5b bc 6c e8 68 3b bc 71 25 bc
       -0.022260845 -0.013394303 0.0035538925 -0.010097917
0002f0 27 b4 27 3d aa 5e db 3c e9 93 06 3c ca ae e7 bb
       0.04094329 0.026778538 0.0082139755 -0.007070397
000300 fd ae 80 3b 67 e2 c7 ba 15 9d ae 3c 71 59 c5 bc
       0.00392711 -0.0015249968 0.021315137 -0.0240905
000310 9e 33 cf 3b 6b fa bb 3b ab d9 ea 3b cc b3 dc 3a
       0.006323292 0.0057366393 0.0071670613 0.0016838252
000320 e4 76 f7 3a a9 c9 9f 38 97 1c 3d bc 92 18 b4 3c
       0.0018880037 7.619273e-05 -0.011542461 0.021984372
000330 4c 99 7a 3c 4d e4 10 3d 0a 7f 2c 3d aa 13 85 3c
       0.015295338 0.035373975 0.04211334 0.016244728
000340 2e 2f 11 3b 0f 22 f0 3c a0 97 f0 3c 65 6c c1 bc
       0.0022153365 0.029313115 0.029369175 -0.023611257
000350 7f f4 1b 3d cc 3c 01 3c 9a 47 b1 3b 23 ad d2 3c
       0.038074967 0.00788803 0.005410147 0.025717324
000360 19 ef e6 3c d6 7a 22 bd d4 9b 25 bd 9f 07 07 bd
       0.028190183 -0.039667927 -0.040431812 -0.032966252
000370 b0 07 87 bc ee 69 da bc 93 f5 4f 3c de 4a ce bc
       -0.016483158 -0.02666184 0.012692827 -0.025182184
000380 f2 18 0a bd 9c 29 95 3b f0 50 69 bc ca f2 0f bb
       -0.033715196 0.0045520794 -0.014240488 -0.0021964782
000390 dd e7 ac bc 84 81 b9 3c 48 93 49 3c e5 4e 84 bd
       -0.021106655 0.022644766 0.012303181 -0.064603604
0003a0 58 10 75 bc 08 11 13 3c 72 bb d4 3c f0 94 9c bc
       -0.01495751 0.008976229 0.025968287 -0.019113988
0003b0 56 a8 e6 3c 24 07 c7 bc 84 7e b9 b8 fa 59 b5 3c
       0.02815644 -0.024295397 -8.845053e-05 0.02213763
0003c0 77 d7 04 3c 56 c5 20 3a d8 3d 0e 3b 49 70 ca bc
       0.008108011 0.0006132921 0.0021704342 -0.024711745
0003d0 d4 5d 9a bb 55 b1 42 bc 4c 7a db 3b 91 50 d7 3c
       -0.004710892 -0.0118831 0.0066979285 0.026283534
0003e0 52 35 01 bd 92 24 42 bc 5b 12 1c 3c 26 da c0 3c
       -0.03154499 -0.011849539 0.009525861 0.023541521
0003f0 ce 19 1f bc b4 06 2a bc 6b 5e e1 bc 28 3b 94 bb
       -0.009710742 -0.010377575 -0.027510842 -0.0045236535

bias f4 [64]
000000 22 3d 5a bd b4 83 9d 3d 3a 6d 86 bd d0 ae 97 3d
       -0.053280957 0.07691136 -0.06563802 0.0740639
000010 7d e7 ad 3d 24 f0 91 3d 89 2f 55 bd f8 83 80 bd
       0.084914185 0.07125881 -0.052047286 -0.06275171
000020 92 ad 97 bd c0 3f a6 3d 59 8b 28 bd bb 4d a2 3d
       -0.07406153 0.08117628 -0.041148517 0.07924982
000030 81 7f 6f 3d 5c 11 a3 bb 61 e3 9a 3d b6 99 2b 3c
       0.058471207 -0.0049764346 0.075629 0.010473659
000040 86 41 37 bd 3e 2f 75 bd 36 42 35 bd 1f 75 ab 3d
       -0.044740222 -0.059859507 -0.044252597 0.083719485
000050 93 c1 d7 3d 03 e6 81 3d d7 f2 ab 3d d3 f1 b0 3d
       0.10534968 0.063426994 0.083959274 0.08639874
000060 c0 11 70 bd 0f 69 21 bd 00 ba 2f bd 66 84 1a 3d
       -0.058610678 -0.039406832 -0.042901993 0.03772392
000070 fe 81 a8 3d 49 b9 1c bc 91 86 05 bd d8 d1 23 bd
       0.08227919 -0.00956566 -0.032599036 -0.039995044
000080 67 56 72 bd 0d c5 c4 3c 06 a5 a0 3d 01 59 6c bd
       -0.05916443 0.024019742 0.07843976 -0.05770207
000090 2a 7e a7 3d 7a f0 e7 3d 9e 26 90 3c 0f 44 ab 3d
       0.08178361 0.11325164 0.01759654 0.083625905
0000a0 88 88 a0 3d f3 22 84 bd 64 0f b9 bc 18 5d a9 3d
       0.07838541 -0.064519785 -0.022590347 0.08269709
0000b0 03 c6 a9 3d d3 bf 94 3d 1c b2 af 3d 08 57 9e 3d
       0.08289721 0.0726315 0.085788935 0.07731444
0000c0 4e 2f 13 3e c9 40 e0 3d f7 e2 66 bd 6e 7b 17 bd
       0.14373514 0.10949857 -0.056368794 -0.036982946
0000d0 e2 a7 5d bd 7f c8 a2 3d 4d 7d 34 ba 20 9f 95 3d
       -0.054115184 0.07948398 -0.00068851263 0.07305741
0000e0 bb 09 5d bd 31 c5 d6 3d 73 9f 5f bd ae 3d 2e bd
       -0.053964358 0.1048683 -0.054595422 -0.04253929
0000f0 75 db eb 3b 24 cb a3 3d 59 36 21 bd cc af 07 bd
       0.007197792 0.079977304 -0.03935847 -0.033126637

weight f4 [64, 64, 3, 3]
000000 33 2c e0 3c f1 af ef ba 1c 45 3a 3c 4b b2 b5 bc
       0.027364826 -0.0018286688 0.011369016 -0.022179743
000010 d9 42 ae 3c 04 b9 e5 3b f1 64 d7 3c c5 a2 22 bd
       0.02127211 0.007010581 0.02629325 -0.03970601
000020 a1 ce 36 3c 47 e6 30 3c bb 08 b5 3c 6c 55 b4 3c
       0.011157663 0.01079709 0.02209889 0.022013389
000030 6d 67 c2 bc ab d0 9b bb 45 71 3f 3b 1c 0f 1e bd
       -0.023730958 -0.0047551 0.00292118 -0.03858863
000040 8a 0f d0 3c 50 9f bd 3b 0b 1d d8 3c 83 09 1d 3c
       0.025398035 0.005786814 0.026381036 0.009584787
000050 c8 5d 0e bc 5e 62 24 3c b0 7d a8 bc eb 72 12 3d
       -0.008689351 0.010033218 -0.020567745 0.035754126
000060 33 65 b8 bc 2c e5 25 3c f2 7b 94 3c 70 76 1a bc
       -0.022509193 0.01012544 0.018125508 -0.009427652
000070 37 22 06 3d 03 96 00 3d 99 8a ca 3c 4c 62 7c 3c
       0.032747474 0.031393062 0.024724292 0.015404295
000080 81 15 37 3c da 81 c2 3c 7f 2f fb 39 76 7a 00 bb
       0.0111745605 0.023743559 0.00047909838 -0.0019604242
000090 1b 48 d9 3c a4 a7 7d 3c 66 eb f5 bb 1e 3f 79 3b
       0.02652364 0.015481863 -0.0075048683 0.0038032006
0000a0 5c 0a 9a 3d f2 d3 51 3d a1 f2 da 3b 9d e0 56 3d
       0.07521507 0.051227517 0.0066817557 0.0524603
0000b0 0a f2 80 3d 3a de c7 3c 63 12 d1 3c 6f 6d 2d bd
       0.06296165 0.024397958 0.025521463 -0.042340692
0000c0 e9 6c 24 3c 89 8c dc 3b ca 5c 61 bc bf 2c d5 3c
       0.010035732 0.0067306203 -0.013755033 0.026022313
0000d0 9c 21 07 3c c7 71 09 3d f2 84 88 bc d0 cc 07 3c
       0.008247759 0.033555772 -0.016664956 0.008288577
0000e0 1b 05 56 bc 94 25 c2 3c bf 39 f9 bc c9 16 d2 bb
       -0.013062741 0.02369956 -0.030423043 -0.0064114076
0000f0 8d 95 16 bc 42 bd 96 bc b9 58 3e bd d8 88 88 bc
       -0.009190929 -0.018400792 -0.04647133 -0.016666815
000100 3c ab e6 bc 0d 50 e0 3a 68 04 93 bc d6 5e 14 3b
       -0.028157823 0.0017113701 -0.017946437 0.0022639534
000110 90 3e b5 3c f0 f7 3f bc c4 62 9f 3b 65 49 71 3b
       0.022124559 -0.011716828 0.0048640687 0.0036817428
000120 de 50 f0 3a 36 ab 2e bc 63 7c d9 3c 4a 37 02 3c
       0.0018334647 -0.010660937 0.02654857 0.007947752
000130 db 4c 24 bb fe d8 d2 bc 43 3f 4c bc 57 e3 ae 3c
       -0.0025070223 -0.025738236 -0.012466255 0.021348638
000140 f3 4f 2a bc b0 58 ca 3c be ea d6 3c a0 6e 61 3d
       -0.010395038 0.024700493 0.02623498 0.05503714
000150 1a e0 a3 bb 71 79 2e 3b 9f a3 ca bb 40 fd fa 3c
       -0.00500108 0.0026622678 -0.006184056 0.030638337
000160 26 b2 5d 3c 8f f9 d2 bb e0 4b 96 bc 65 f4 f0 3c
       0.013531243 -0.006438441 -0.018346727 0.029413411
000170 2b 6c a6 3c ed d1 44 3c 82 b7 19 bd 11 65 08 3c
       0.02031525 0.012012941 -0.037528522 0.008324877
000180 29 71 01 3b d3 35 33 bc a4 45 32 3c 4e b3 d9 3c
       0.0019751287 -0.010938126 0.010880861 0.026574757
000190 f8 ef 80 3b 43 41 26 3d 88 1c 18 3d 8b d6 a0 3d
       0.0039348565 0.040589582 0.037136585 0.07853421
0001a0 13 7c e8 3c 24 25 dd ba 77 18 bd 3c 56 90 97 bb
       0.028379476 -0.0016872031 0.023082955 -0.0046253605
0001b0 07 59 ea 3a 8e bb 4c 3d 4e 1e 29 3d 7e 68 f5 bb
       0.0017879315 0.049983554 0.041288666 -0.007489263
0001c0 a0 36 17 3d cf ea ff ba bd 53 ed 3c 26 dc 0f bd
       0.03691733 -0.0019524934 0.028970594 -0.03512206
0001d0 3a fa 2e bd 8a 4d 80 3c e4 ac 6c 3b 8a ab ce 3c
       -0.042719103 0.015661974 0.0036113793 0.02522828
0001e0 c9 7f be 3c 75 dd 98 bc 13 55 99 3b 24 7a 6e 3c
       0.023254292 -0.018660286 0.004679331 0.014555488
0001f0 46 d9 2b bd e3 be 7e bb 67 f0 bb 3c 7a fe 0c 3c
       -0.041955255 -0.0038871102 0.022941781 0.008605594
000200 1a 04 02 3c dc de 25 3d e2 7e 88 3d a1 70 ca 3c
       0.007935548 0.04049574 0.06664826 0.024711909
000210 96 6b eb bb 11 e7 6e 3c 2d f5 68 3d 41 5a 32 3c
       -0.007184456 0.014581458 0.056874443 0.010885776
000220 ae 99 29 3c 8a ba b9 bb e6 b9 1b bd a4 94 1c bc
       0.0103515815 -0.005667989 -0.038019083 -0.009556923
000230 37 3b 29 3c d0 5e 14 bc bc 9c 26 3d 8c 10 06 bd
       0.010329059 -0.009055808 0.040676817 -0.032730624
000240 c0 e9 5d bc 28 cc 17 bc 34 4f f8 bc a0 f2 10 bd
       -0.0135445 -0.009264983 -0.030311204 -0.035387635
000250 1c cf 8c 3c 87 e1 8f bc 39 2b 9e 3b 27 b1 ed bc
       0.017188601 -0.017563595 0.00482693 -0.029015137
000260 59 22 e0 bc fe eb 94 bc 7b 9a 11 3c 60 68 bd 3b
       -0.027360128 -0.018178936 0.008886929 0.0057802647
000270 54 39 26 3c 55 4f fc ba a2 2f 00 bd 64 f7 e8 b9
       0.010145504 -0.0019249717 -0.031295426 -0.0004443481
000280 d1 69 1d bc f2 a2 5d 3a 1c 76 ac bc ff 34 0f 3a
       -0.009607748 0.00084547617 -0.021052413 0.0005462914
000290 7f e0 b0 3b d2 6a 13 3d e5 4a b0 3c a1 56 31 3d
       0.005397856 0.035990544 0.021520087 0.043295506
0002a0 bc db 19 bd c1 ae d4 bb da 2c 09 bd 4d c6 22 3b
       -0.03756307 -0.006490559 -0.03349004 0.0024837435
0002b0 d9 f6 f8 bc 83 5d 01 3d 6e 75 18 3d 98 d6 0d bc
       -0.030391144 0.03158332 0.037221365 -0.00865712
0002c0 db af 88 3c df 7f e5 bb bb 79 ce bc 7e 5d b8 3b
       0.016685417 -0.007003769 -0.02520453 0.0056263795
0002d0 8f dd 8a 3d 09 4c 1e 3d ae d9 74 ba 85 e2 86 3c
       0.0678054 0.03864673 -0.0009340298 0.016465435
0002e0 a7 5f 0a 3d ea 1c ab bc 93 57 c6 3a 52 1a f5 3c
       0.033782627 -0.02088781 0.00151323 0.029919777
0002f0 55 dc b6 3c a2 47 6e 3c a8 89 81 3d 91 40 32 bc
       0.02232186 0.014543446 0.06325084 -0.010879652
000300 ec 7e 58 bc 41 75 70 3c 4b b3 8f bc de 27 b7 b9
       -0.013213854 0.014676393 -0.017541548 -0.00034934183
000310 0a 43 79 3c 3b 22 ec 3c 06 13 c0 3c f6 08 e9 ba
       0.015213737 0.028824916 0.023446571 -0.001777916
000320 b7 62 2f 3d af e1 76 bc 4c 96 ae 3c ea 32 ff 3c
       0.04281875 -0.015068456 0.021311902 0.031152207
000330 63 5e bc 3d 21 bc 0e 3d 7b 0c 53 3c 23 ef 67 3d
       0.0919769 0.034847382 0.012881394 0.056624543
000340 22 0a 17 3d a6 81 08 3d 69 8b 2e 3d 91 11 33 3d
       0.036874898 0.033326767 0.04261342 0.043717925
000350 3c c2 11 3d db 70 c5 3c 2b 13 08 3d 13 2d ac 3c
       0.035585627 0.024101665 0.033221405 0.021017587
000360 5a e5 c8 bc b7 a3 17 bd 79 82 56 3c 58 d3 3f 3c
       -0.024523426 -0.037021365 0.013092631 0.011708103
000370 6f 81 be bc 7c 09 e9 bc bb a7 f8 bb c0 e5 72 bc
       -0.023255078 -0.028446905 -0.0075883544 -0.0148252845
000380 c1 d1 35 bc e5 4e 7b 3c 98 cd d5 ba 35 f6 b1 bc
       -0.0110973725 0.015338634 -0.0016311882 -0.021723846
000390 22 e4 a7 3a 96 b5 35 bc 95 b0 e4 3b b4 d4 76 bc
       0.0012809078 -0.011090657 0.006979058 -0.015065361
0003a0 71 3c 0a bd 2a 93 82 3c 26 db 82 3b 04 ef e1 bc
       -0.033749048 0.015939314 0.0039934097 -0.027579792
0003b0 2e 70 86 bd ca 3d 7a 3b 35 e8 a1 bc e3 6f ce bb
       -0.06564365 0.0038183802 -0.019764045 -0.006299959
0003c0 00 ba 35 bc 0f 2c 24 3d 93 22 2d 3c 3c 62 db 3c
       -0.011091709 0.04008108 0.010567325 0.02678024
0003d0 b3 dc 20 bb a1 8e 5d bc 94 43 26 3c 4d 50 53 3c
       -0.002454561 -0.013522775 0.010147948 0.012897563
0003e0 33 11 eb 3c 1c 66 d2 3a 88 f2 32 bb 02 8e e3 3b
       0.028694725 0.001605216 -0.0027305204 0.006944419
0003f0 4c 47 12 3d b9 6c 86 3c ac a5 e9 3c 83 f4 a7 bc
       0.035712525 0.016409265 0.028521381 -0.020502334

bias f4 [64]
000000 2e ef a3 3d 2d 89 0c bd f0 51 91 3d 88 37 31 3c
       0.08004604 -0.03431051 0.070957065 0.010816462
000010 1f 7b 54 bd 73 27 f0 bc ab 0f a8 3d c9 ff 88 3d
       -0.05187523 -0.029315686 0.082061134 0.06689412
000020 65 58 ae bc a2 3d be bc 76 7c 86 3d 3c 25 c8 bd
       -0.021282384 -0.023222748 0.06566708 -0.09772727
000030 dc 73 ba bc 89 da b7 bc f0 7e c5 3c 7f 99 1b 3d
       -0.022760324 -0.022443073 0.02410838 0.037988182
000040 55 29 90 bd 9f a4 64 bd f3 e8 64 bd c2 fc 02 3d
       -0.070391335 -0.055821057 -0.05588622 0.03197933
000050 26 f5 a3 bd cf e5 81 bd 8f 6a 67 bd a3 93 9c 3d
       -0.08005743 -0.06342661 -0.056498107 0.07645347
000060 b4 68 3c 3d bb af 90 3d e4 05 a9 3b 46 a2 9f 3d
       0.04599829 0.07064768 0.005158173 0.07794623
000070 3a 27 e7 3c 1d 21 a7 3d 43 de e7 bc e5 e5 60 3d
       0.028216947 0.08160613 -0.028304225 0.054906745
000080 bc 41 85 3d 0b 38 95 bd 61 03 61 3d 3c 13 4f bd
       0.065066785 -0.0728608 0.054934863 -0.050555453
000090 b0 e4 6f 3d cd f0 72 bd 10 0c 82 3d b0 07 a1 3d
       0.058567703 -0.059311677 0.06349957 0.078627944
0000a0 49 2e 20 3d 9d 1f 8d 3d 08 b7 9d 3d 37 76 f5 3c
       0.03910664 0.068907954 0.07700926 0.029963596
0000b0 c9 a3 a1 3d 0f 60 d4 3c e1 20 9a 3d 7e 0a a0 3d
       0.07892568 0.02592471 0.075258024 0.07814501
0000c0 bf de 99 3d 83 0f a1 3d 24 90 24 3d c2 8a 9c 3d
       0.075131886 0.07864287 0.040176526 0.076436535
0000d0 ce d7 91 3d 65 6f 7d 3c 6f 27 71 3c 2d 48 69 bd
       0.071212396 0.015468453 0.014718874 -0.056953598
0000e0 d0 c5 09 bd 81 78 83 bd 9c fd 6b bd 80 42 9d 3d
       -0.033635914 -0.06419469 -0.057614908 0.076786995
0000f0 1e 7c 0c bd 47 30 a8 3d f3 42 99 3d 80 d1 55 bc
       -0.034298055 0.08212333 0.07483473 -0.013050437

weight f4 [64, 64, 3, 3]
000000 26 61 38 bc 3d 19 1d 3d c3 eb e8 bb 70 97 07 3d
       -0.011253631 0.038354147 -0.007108183 0.033103406
000010 d2 83 07 3d 54 b7 3b 3d 3b 44 54 bc 86 36 d0 3b
       0.033084698 0.045829132 -0.012955721 0.006354156
000020 cc b7 02 bc b1 9e 2e 3c f3 5e a0 bc 17 57 0a 3d
       -0.007978391 0.010657952 -0.019576525 0.03377446
000030 5b d1 14 bc 25 6d 5f 3c df 63 a6 3c 3b db 0a 3c
       -0.009083117 0.013636862 0.020311294 0.00847512
000040 e2 aa b6 3c 0c 3b e3 3b 7b 21 8e bb 7f a1 29 3d
       0.02229828 0.006934529 -0.0043374873 0.04141378
000050 32 2d c3 bc 07 03 b4 3c 38 31 8d 3d ce ca d1 bb
       -0.023825262 0.0219741 0.06894153 -0.00640235
000060 ee fe 60 bc c6 cd d2 bc ab e2 ff 3c 5c 00 a9 bb
       -0.013732655 -0.025732886 0.031236013 -0.0051575135
000070 48 8e 56 3c c2 8e 17 bd 0f ca ca 3c 3e 0a 0f bc
       0.013095446 -0.03700138 0.024754552 -0.008730469
000080 1b 1c 2b bc 3d 7c f7 3c 7c ab c1 ba df 9f 50 bc
       -0.010443713 0.030210609 -0.0014775838 -0.012733429
000090 71 10 43 bd 86 29 71 bc 40 f8 62 b9 d4 9a f5 bb
       -0.0476231 -0.014719373 -0.0002164552 -0.0074952636
0000a0 e2 24 be bc 7d c6 8d 3b 65 52 44 bb f8 b9 af bb
       -0.023210946 0.00432664 -0.0029956338 -0.0053627454
0000b0 26 15 fd 3c de 35 cc 3c 15 3b 7f 3c 5c 45 82 ba
       0.030893873 0.02492803 0.015578051 -0.0009938884
0000c0 0e 4e d4 bc 0b c6 54 b9 6c ae 36 3d 6e 06 c6 3c
       -0.025916126 -0.00020291672 0.044599935 0.024172988
0000d0 45 83 01 3d 19 be 87 3c f2 39 17 3c 5a 8e 63 3c
       0.03161933 0.016570138 0.009230124 0.01388892
0000e0 d8 82 bc bb 9a d0 4d 3c 8c fe 81 3d 37 de 40 bc
       -0.0057529025 0.0125619415 0.06347379 -0.01177173
0000f0 a1 7f 28 3c de 29 28 bd f0 51 9b 3c 41 95 15 bd
       0.010284335 -0.041055553 0.01895997 -0.036519293
000100 60 c8 26 3c 62 24 99 3c 93 b7 5a 3a 3f ef 29 3d
       0.010179609 0.018694106 0.0008343395 0.04148793
000110 41 ea ae bc 42 14 e0 3c b3 94 80 3c d8 ad ef bc
       -0.021351935 0.02735341 0.015695905 -0.0292577
000120 4a 06 64 3d 86 62 3d bc bb f7 90 bc 45 6f 3a 3c
       0.05567006 -0.011559134 -0.017696252 0.011379068
000130 40 1c d9 bb 31 61 04 3d 93 0d 44 bd 79 54 00 3d
       -0.006625682 0.03231925 -0.047864508 0.03133056
000140 42 6c 7d 3b 48 88 e1 3c 42 a3 a5 3c 83 0d c3 3c
       0.0038669263 0.027530804 0.020219449 0.023810154
000150 87 96 ff bb ff 47 dc ba 04 92 23 3d f6 cf 0e bd
       -0.0077999267 -0.0016806124 0.039934173 -0.034866296
000160 9f 21 1f 3d 24 a3 97 3b 7e 9d 62 3c de 3e 0a 3d
       0.038850423 0.004627602 0.013831494 0.03375136
000170 cd 6d 08 bd a6 84 71 3c fe b2 99 3d 2a 73 14 3c
       -0.03330784 0.0147410985 0.07504843 0.00906066
000180 68 6d 0c 3c ec 61 f4 39 87 81 b0 3c e6 31 34 bb
       0.008571006 0.00046612264 0.021546138 -0.0027495562
000190 02 a7 2c bd 40 9c c1 3c 43 fb fd bc 26 34 17 bd
       -0.04215146 0.023634076 -0.0310036 -0.036914967
0001a0 5e 4c 86 3b 3a 86 c7 3c 5a bc 29 ba 98 68 8a 3c
       0.004098459 0.024355996 -0.0006474905 0.016895577
0001b0 91 38 f8 3c e0 e0 82 bb 70 50 19 ba b9 d0 1d bd
       0.03030041 -0.0039940923 -0.0005848473 -0.03852913
0001c0 f9 99 d5 3b 4f e5 eb 3c 40 ab 9b 3c 7f ca 12 3c
       0.006518599 0.028795866 0.019002557 0.008959412
0001d0 8c 62 0f 3d 4f 45 a9 3c 42 b5 68 3c 0b de 25 3d
       0.03500609 0.020662932 0.0142033715 0.04049496
0001e0 5b 38 da bc 1a f3 4a bd 4c 55 99 3c 4b dd 2d bc
       -0.0266382 -0.049548246 0.01871743 -0.010611842
0001f0 6a a7 50 bd 62 f8 44 3d e2 12 4c 3d 1f 9a 6d 3d
       -0.05094091 0.04808844 0.049822696 0.05800831
000200 c6 45 65 3c d9 24 c2 3d 4b 0e 87 3d dc e5 94 3b
       0.013993686 0.094796844 0.06594523 0.004544003
000210 25 34 3b bc 92 4c c8 3c 4c 31 9d 3c bc 9f ba 3c
       -0.011426006 0.024450574 0.019188546 0.022781245
000220 2b a3 2b bd 01 5a eb bc df f0 19 bc 8e 0e 5c bd
       -0.041903656 -0.02872944 -0.009395807 -0.053724818
000230 02 1e 25 3d 11 fd 79 3c 7b 9d c7 3b 3a ff 83 3b
       0.04031182 0.01525809 0.006091771 0.004028228
000240 f5 02 cb bb d1 8d 09 bc a6 d6 2e bb 5a 45 60 3c
       -0.006195421 -0.008395628 -0.0026678233 0.01368841
000250 c4 5e 49 bd e0 68 36 3b af d1 dc bc e1 28 21 bc
       -0.04916264 0.0027833506 -0.026955454 -0.009836406
000260 c6 25 f4 bb 76 93 0a bc 6a c4 ee 39 df 54 98 3c
       -0.007450792 -0.008458009 0.00045541237 0.018595157
000270 d2 37 4c bd 6e c8 50 bd 74 b2 01 3c 95 09 b7 bc
       -0.049857922 -0.050972395 0.007916082 -0.022343436
000280 3c e1 66 3a b8 c3 99 3c 58 35 21 bd f4 54 e8 3b
       0.0008807366 0.018770084 -0.039357513 0.0070902053
000290 91 98 4f bc d8 85 0b 3b 93 ed 97 bc be 8c d4 bc
       -0.012670652 0.0021289494 -0.018545901 -0.025946017
0002a0 67 8f c7 bc 2e 2d 79 b9 bc 43 35 bb 4d 12 f0 bc
       -0.024360372 -0.00023763321 -0.002765878 -0.029305601
0002b0 96 77 dc 39 16 bb e0 3a 86 ff d4 3c f8 4e 4e 3d
       0.00042050768 0.00171456 0.02600075 0.05036828
0002c0 b6 c7 10 bc 57 2e 68 bc 8f 3e 07 3c 4b 52 e5 bb
       -0.008836677 -0.0141712045 0.008254661 -0.0069983355
0002d0 f4 cd 84 3d aa ff d0 bb 76 41 19 3d c2 90 63 bd
       0.06484595 -0.006378134 0.037415944 -0.055557974
0002e0 b3 d5 db bd f4 2c e1 3c 39 7d 03 bc f2 5c ed 3c
       -0.10734119 0.027487256 -0.008025461 0.028974984
0002f0 52 4f eb 3d 24 1a 83 3a da 84 00 bc 5a 9a 0a 3d
       0.114897385 0.0010002297 -0.007844174 0.033838607
000300 5b a9 8e 3a 96 40 59 bc 37 70 c7 38 ba da c6 bc
       0.0010884212 -0.013260027 9.509961e-05 -0.024274219
000310 53 25 7d bc a3 f1 83 bc 19 68 5a bc c3 98 8e bc
       -0.015450793 -0.016106432 -0.013330483 -0.017406827
000320 dd 50 4e bc 31 05 0c bb a4 55 3c bc e6 6a 2f 3c
       -0.0125925215 -0.00213654 -0.011495028 0.010706639
000330 ac c3 9d 3c 16 47 aa bc d5 3f 43 3c 48 33 07 bd
       0.019258343 -0.02078585 0.011917074 -0.03300789
000340 2a 87 e6 3c 2b 50 1f 3d 93 49 8a 3c 3d da 9c 3d
       0.028140623 0.038894814 0.016880786 0.07658813
000350 e6 e3 27 bd 82 84 25 3c eb 5d af bb 4f a5 43 bd
       -0.040988825 0.010102393 -0.005351772 -0.047765072
000360 69 d7 46 3d 88 9b 07 3e 8c 5a a1 3c 1b 79 0e 3e
       0.048545275 0.13242924 0.019696496 0.13913386
000370 ae 3b 26 3e 8f 85 72 3d 41 96 56 3d 60 11 b2 3c
       0.16233703 0.059209403 0.052389387 0.0217368
000380 e0 a1 99 bc c5 a3 ac 3c 74 ad 53 3e 89 cd 24 3d
       -0.018753946 0.021074185 0.20671636 0.040235076
000390 eb c4 33 3e 4c 78 5e 3e 14 c2 68 3c 2b 19 50 3b
       0.17555587 0.21725577 0.014206428 0.0031753283
0003a0 9f 38 cc 3c ae 05 d8 bd fc 40 2a bc 6e bc 0a 3c
       0.024929343 -0.10547958 -0.01039147 0.008467777
0003b0 01 d6 92 bc 39 0e 8e 3c 25 ad 60 3c a1 3b 32 bd
       -0.01792431 0.017340766 0.013713156 -0.043513898
0003c0 02 f7 94 3b 92 f8 ec bc 95 95 1e 3c e8 c3 4d bc
       0.004546047 -0.028927121 0.009679218 -0.012558915
0003d0 00 ff b7 3c de 40 96 3c af 84 0a 3d 50 32 1c 3c
       0.02246046 0.018341478 0.033817943 0.00953348
0003e0 70 a7 9a bc 63 36 1d bc 8f db 42 3c 20 85 de bc
       -0.018878669 -0.009595486 0.011893167 -0.027163088
0003f0 9b a2 13 bd 0d b5 81 3c f8 ad 43 bc a9 80 3e 3d
       -0.036043745 0.015833402 -0.011943333 0.04650942

bias f4 [64]
000000 c9 7c 8a 3d 93 b1 76 3d 4f e4 92 3d f4 c3 83 3d
       0.06762082 0.06022794 0.07172453 0.064338595
000010 73 4f 3f bd cb fd 33 bd 4b 23 40 bd 26 f5 84 bd
       -0.046706628 -0.043943208 -0.046908658 -0.06492071
000020 42 eb 37 bd 1a 37 73 bd d1 09 71 3d cc bb 81 3d
       -0.044902094 -0.05937872 0.058847252 0.063346475
000030 4c 39 87 bd 44 5d 30 bd 08 e3 72 bd 3a 1e a5 3d
       -0.066027254 -0.043057695 -0.059298545 0.08062406
000040 7a 99 84 bd ef ea 73 3d ae a7 0f 3d 00 63 81 bd
       -0.06474586 0.059550222 0.03507202 -0.06317711
000050 ac db 8e 3d 4c 55 74 bd a4 1d 85 bb f7 28 79 bd
       0.06975493 -0.059651658 -0.0040623713 -0.060830083
000060 b7 aa 66 3d e3 18 5e bd ee a8 8e 3d 14 6c 4c bd
       0.05631515 -0.054222953 0.069658145 -0.04990776
000070 4f 52 96 3d dc 5a 22 bd 25 71 8e bd 37 c2 7e bd
       0.07339918 -0.03963743 -0.06955174 -0.062196936
000080 36 10 8b 3d 7f 32 61 bd b9 ef 91 3d 35 9b e5 bd
       0.06790201 -0.054979797 0.071258016 -0.11211244
000090 65 3f 7b 3d b5 70 5d bd 43 40 73 bd 79 9f 65 bd
       0.061339755 -0.054062564 -0.059387457 -0.056060288
0000a0 ee 6e 75 3d 8f 57 59 bd 65 e0 73 3d 4e 6d 05 bd
       0.059920244 -0.053062018 0.05954017 -0.032574944
0000b0 da 26 1e 3d 3a b9 30 3d 13 05 a4 bc 70 93 19 bc
       0.03861127 0.043145396 -0.02002195 -0.009373531
0000c0 52 0e 61 bc b7 5c 6e bd 40 f0 90 3d 1f 87 87 3b
       -0.013736324 -0.05819389 0.07077074 0.0041359807
0000d0 4e e6 5d 3d 09 0e 87 bd 8e 3a 73 bd fb 31 ca bd
       0.054174714 -0.06594474 -0.059382014 -0.09872814
0000e0 b0 1f cd 3c f3 d9 ab 3d 29 82 69 bd 83 8b 6d bd
       0.025039524 0.0839118 -0.057008896 -0.057994377
0000f0 ae ee 89 3d 8c ad ce bb aa 12 92 3d 1e f9 84 bd
       0.06734978 -0.0063073095 0.07132466 -0.06492828

weight f4 [64, 64, 3, 3]
000000 13 df dc bc d5 34 ca bc 02 05 e2 3b 4f 58 d9 3c
       -0.026961839 -0.024683395 0.0068975696 0.026531367
000010 b2 ca 98 3c c8 4a 5f 3d 02 a3 1e 3c 75 3d c8 3c
       0.01865134 0.054514676 0.009682419 0.024443367
000020 30 e4 db 3c 4b 6f 9a 3c 10 2a 21 3d e8 d1 bc 3c
       0.026842207 0.018851897 0.039346755 0.02304931
000030 85 19 58 bc 5f e9 bd 3d 28 fc d8 3b 55 e2 0e 3d
       -0.013189678 0.09273028 0.0066218562 0.034883816
000040 70 2f f7 bc 7f 70 b5 3c 29 67 3e bb 2f 44 10 bc
       -0.030173987 0.022148369 -0.0029053187 -0.008805319
000050 af d8 03 bc a1 ac 1f 3d aa 89 37 3d 05 fc 94 3d
       -0.008047267 0.03898299 0.04480902 0.072746314
000060 8b af 03 bc 99 5e 19 3d 9d 5b 6b 3c 68 2a 01 3d
       -0.008037458 0.03744373 0.014365104 0.031534582
000070 aa a0 52 3c ce d7 d2 3c b6 b3 52 ba 22 29 23 3d
       0.012855688 0.02573767 -0.0008037643 0.03983415
000080 9e 54 37 3c 2f ce 69 3c e9 1d f2 3a d8 31 0a bc
       0.011189608 0.014270349 0.0018472049 -0.008434735
000090 ed c8 bc 3c 8a f3 6a bc 6e 29 c7 bb 5a 1d 14 bd
       0.023045028 -0.014340291 -0.006077937 -0.036160804
0000a0 7a f5 45 bc b4 a8 42 bc a3 15 ef bb 94 0d b9 bc
       -0.012082452 -0.011881042 -0.0072962805 -0.022589482
0000b0 85 81 25 3c 14 b8 37 3c a2 89 81 bb f9 95 c6 3c
       0.010101681 0.011213321 -0.0039531747 0.024241434
0000c0 10 89 d9 3c 93 ab cc 3c 12 be ca 3c 0f 31 3e 3d
       0.026554614 0.024984157 0.024748836 0.046433505
0000d0 3c df de 3a e4 2d 7d bc de 50 d6 3c cb 30 dc 3c
       0.0017003785 -0.015452836 0.026161607 0.026878735
0000e0 8c ba e3 ba 42 9c 37 3d 17 7a d1 bb 9c f9 a4 3a
       -0.0017374321 0.044826753 -0.006392728 0.0012586596
0000f0 f2 ba 68 3c fd 50 3e bc 4a 52 e6 bb 2f bc 80 bc
       0.0142047275 -0.011615989 -0.0070288526 -0.015714733
000100 d4 d8 8f 3c bf 2d 53 3c da 84 12 3c 9e f9 60 bc
       0.017559446 0.012889325 0.008942807 -0.013731388
000110 07 f0 8d 3b fe 8d b1 3b 58 79 a7 bb 88 a6 12 bc
       0.004331592 0.005418538 -0.005110901 -0.008950837
000120 82 a6 e1 bc 88 5e 1e bc 0e 51 34 3c 59 4e cb 3c
       -0.027545217 -0.009666093 0.011005653 0.024817633
000130 26 10 e2 bc 33 f9 0a 3c cd d2 7f ba d5 52 09 3c
       -0.02759559 0.008482265 -0.000975889 0.008381565
000140 65 69 8f bc 95 8c 65 bb ec 57 1a bd 26 db 8a 3b
       -0.01750631 -0.003502642 -0.037681505 0.0042375503
000150 34 60 13 bb c3 81 93 bc b0 cd 81 bc ce 4d 84 bb
       -0.0022487761 -0.018006211 -0.01584515 -0.0040375954
000160 56 f8 bb bb 68 b3 e5 bc ac 82 aa bc 3b 9d 23 3c
       -0.005736391 -0.02803965 -0.020814262 0.009986217
000170 26 4d 38 3d 40 ed 76 3d 36 c8 a5 3d 09 84 55 3d
       0.04499545 0.060284853 0.08094828 0.05212787
000180 6f 6c d6 bb db bf e1 3c 3e 25 63 bc 46 9f 54 bb
       -0.006543688 0.027557304 -0.01386386 -0.0032443567
000190 86 18 9b 3c 79 bd f0 bc 82 94 43 3d 86 68 c7 3c
       0.018932592 -0.029387223 0.04774905 0.024341833
0001a0 68 15 18 3d 46 a5 ac 3c 22 92 99 3b df 74 f4 3b
       0.03712979 0.021074902 0.00468661 0.007460221
0001b0 16 4d d9 3c f3 43 cf bc 21 11 79 3b 8e 78 aa bc
       0.026526015 -0.025300955 0.0038004594 -0.020809438
0001c0 7d 53 eb b9 01 1c 47 3c ba b6 2d 3b c9 46 29 3c
       -0.00044884896 0.012152673 0.0026506619 0.010331818
0001d0 bb 05 9c 3c 39 d7 f3 bb d4 19 01 3c 55 29 a0 bc
       0.019045701 -0.007441428 0.007879693 -0.019550959
0001e0 75 9b 1b ba 5b 34 48 ba c5 0b 72 3c f4 4c 70 bc
       -0.00059359457 -0.0007637196 0.014773314 -0.014666785
0001f0 7c 42 8b bc 05 49 80 3b 3b 2d 97 3d 02 dd 09 3c
       -0.016999476 0.0039149546 0.07381674 0.008414509
000200 20 60 09 3d 17 16 10 3c b7 e7 31 bb 56 13 e9 bc
       0.033538938 0.008794329 -0.002714617 -0.028451603
000210 4d 2a 22 bd 74 f8 48 3d e4 69 f3 bc e4 5a 4e bc
       -0.039591122 0.04906507 -0.029713579 -0.012594912
000220 e5 73 bd 3c e8 9c 32 3c c6 c1 60 3c 1d fb ec 3c
       0.023126552 0.010901667 0.013718074 0.028928334
000230 d7 0a 30 3d 13 02 9a 3c 2c 6b 61 bc 78 0c 39 3c
       0.042979088 0.018799817 -0.013758462 0.011294477
000240 e7 de d9 3c a3 b5 21 3c 84 40 8f bb 30 7b 49 3c
       0.026595546 0.009869966 -0.0043717045 0.012297437
000250 49 c5 00 bd 3d 33 42 3c 0d 67 2d 3d 68 67 99 bb
       -0.031438146 0.0118530365 0.042334605 -0.0046815164
000260 eb e5 44 3c 51 71 ac bc 52 18 99 bc d9 f2 f1 bc
       0.012017707 -0.021050127 -0.018688355 -0.029534744
000270 8f 1e 0a bd 7c d0 8c bc 68 cf 07 bd 4b 2a 15 37
       -0.03372055 -0.017189257 -0.033156782 8.890939e-06
000280 aa 1e b5 ba 90 3d 1a bd b6 ef 96 3c 2a 42 8c 3c
       -0.0013818343 -0.037656367 0.01842485 0.017121393
000290 4b d7 c6 3c 76 10 be 3c 9f e4 88 3d 6c 3c 9e bc
       0.024272582 0.023201209 0.06684231 -0.01931592
0002a0 b5 46 93 ba e8 36 8a bc 6f 9a 0d bc 10 9e 78 3c
       -0.0011236282 -0.016871884 -0.008642777 0.015174404
0002b0 95 7e 13 3d 8c 14 cc 3c 22 e4 e8 3c c9 36 0e 3d
       0.03600939 0.024912141 0.028429095 0.034720216
0002c0 d1 2c a5 3c aa 73 56 3b be a6 49 bd 33 75 26 3c
       0.020162972 0.003272275 -0.049231283 0.010159778
0002d0 11 92 9e bc 0e 4a 97 3c e1 1b aa bb 5a ca 88 3d
       -0.01935676 0.01846793 -0.0051913117 0.066792205
0002e0 21 52 63 3d 65 0a 07 3d fa 2c 90 3c b8 6c fc 3c
       0.055498246 0.032968897 0.017599571 0.03081356
0002f0 3d fe 05 bc 30 bc 3d 3a f4 f8 09 3c 25 32 ad 3c
       -0.008178291 0.000723782 0.008421171 0.021142075
000300 9b da fc 3b 32 49 f9 bc 34 99 f4 3c ad 75 f6 3b
       0.0077164895 -0.03043041 0.02985821 0.0075213523
000310 0c 90 02 bc 39 45 c2 3c 44 11 11 3c 16 59 6b bc
       -0.007968914 0.023714649 0.008854214 -0.014364501
000320 d2 b4 ed 3a 35 a0 ce bc ce b3 11 3b 2a 5f c7 3c
       0.0018135554 -0.025222877 0.0022232416 0.02433737
000330 63 22 82 bc 9a d0 54 bc 8f aa d5 bb 02 8f 26 3d
       -0.015885537 -0.012989188 -0.0065205763 0.040663727
000340 39 1c 00 3d ff 71 4a bc 48 e8 21 3d 7f a2 00 bd
       0.031276915 -0.01235628 0.03952816 -0.03140497
000350 c7 7e 1e 3d 0e aa d0 b9 6d ec 1a 3c 87 4c 14 3d
       0.038695123 -0.00039799552 0.009455782 0.036205795
000360 e0 cb d3 bc 66 f1 bd bd 5d 9d 8a bd fb c3 32 3c
       -0.025854051 -0.09274559 -0.06768296 0.010910983
000370 c8 c5 6d 3d dd ad a8 ba 76 1e ab bc a3 af 8e 3c
       0.058049947 -0.0012869198 -0.020888548 0.017417734
000380 ff 69 e0 bc 95 ac dd bc be 09 95 bc 15 ed 39 bc
       -0.027394293 -0.027059833 -0.018193122 -0.011348029
000390 2d 41 01 3c d6 0c c2 3b ea 0d a0 b9 ae ea aa 3b
       0.007889074 0.0059219403 -0.00030527945 0.0052159643
0003a0 6b 6c a2 bc 97 4e c7 3c 5c 82 0d 3d 43 83 97 3c
       -0.019827088 0.024329467 0.03454815 0.018495208
0003b0 06 40 e8 3b 29 b6 01 3d ca 0e 4a 3d f7 7e 09 3d
       0.0070877103 0.031667862 0.04933051 0.03356835
0003c0 64 a3 28 bc f0 41 62 3c f2 01 50 3d d5 2a 1e bd
       -0.010292862 0.013809666 0.050783105 -0.038615067
0003d0 b6 ea e2 bc bb 32 b9 3c 29 f1 ed ba d6 ea d3 3a
       -0.02769981 0.022607198 -0.0018153536 0.0016168009
0003e0 33 e7 69 3c a1 fe 45 3c df 29 f6 3b 1e b1 1a bc
       0.014276314 0.012084634 0.0075123156 -0.009441642
0003f0 00 6d 10 3d be c2 f7 3c 19 d3 5a bc 68 4e 20 3d
       0.0352602 0.030244227 -0.013355994 0.039137274

bias f4 [64]
000000 71 10 79 3d a9 11 b7 bd 21 67 a0 bd f8 aa 25 3d
       0.060806695 -0.08938915 -0.0783217 0.04044625
000010 36 f9 52 bd c3 97 18 bd 65 08 8a 3d 5c 2b 2a bd
       -0.051507197 -0.037254106 0.067398824 -0.041545257
000020 84 30 85 bb 52 50 9f bd 9c 45 ae bd 93 4f 99 3d
       -0.0040646214 -0.07778992 -0.08509371 0.07485881
000030 82 fc 8e bd b9 10 43 3d e7 62 82 bd 0b 2d 98 bd
       -0.06981756 0.04762337 -0.063665204 -0.07430466
000040 23 11 74 3d 00 d4 89 3d 9b b6 3d bd 66 70 86 3d
       0.059586655 0.06729889 -0.046316724 0.06564407
000050 85 71 97 3d 37 eb b1 bd a9 7b ae bd 9c 46 84 bd
       0.07394699 -0.08687442 -0.0851968 -0.0645878
000060 71 ed 33 bc 06 42 a6 bd 2d 8b b9 bd 9e 94 6e bd
       -0.010981903 -0.08118062 -0.09059749 -0.0582472
000070 05 7e 79 3d 06 99 88 3d 73 b0 9e 3d 8c 12 80 bd
       0.060911197 0.06669812 0.07748499 -0.062535375
000080 8e 5d 70 bb 40 c6 7d bd 29 77 91 3d 7b 46 79 3d
       -0.0036676857 -0.061956644 0.07102806 0.06085823
000090 06 5d 82 3d 3f 95 5c 3d 29 81 a1 bd fe ce 96 bd
       0.06365399 0.05385327 -0.078859635 -0.073636994
0000a0 1c 8f a6 bd 47 91 af 3a d8 b3 7e bd 26 04 98 bd
       -0.08132765 0.0013394736 -0.06218323 -0.07422666
0000b0 1e 90 43 bd 65 34 55 3d de dc 53 3d f7 1c 3f bd
       -0.047744863 0.05205192 0.051724307 -0.046658482
0000c0 37 a3 b0 bd e2 8b 34 3d c9 e8 a1 3c 42 ce 83 bb
       -0.08624881 0.044078715 0.01976432 -0.0040223906
0000d0 29 29 b3 bd da 29 8c 3d 65 a8 72 3d 9b 17 07 3d
       -0.08748085 0.0684392 0.059242625 0.032981496
0000e0 9e ab 85 bd 7a a4 18 bb b2 d6 aa bd 20 03 0c 3d
       -0.06526874 -0.0023291395 -0.08341731 0.034182668
0000f0 df 5c 83 bd 2c 76 78 3d 50 00 90 3d e1 79 87 3d
       -0.06414198 0.060659572 0.070313096 0.066150434

weight f4 [32, 64, 3, 3]
000000 1a 52 8c 3c 4e 24 0a 3d 72 3e 9d bc 95 a6 28 bd
       0.017128993 0.03372603 -0.019194815 -0.04117449
000010 bd eb 0c bd de 41 f9 3b c6 49 c3 3c b5 f8 32 3b
       -0.034404505 0.007606729 0.023838889 0.0027308885
000020 ee 3a 7d 3c f5 7c 95 3c b2 f2 71 3c 0b 1d c9 3b
       0.015455944 0.01824806 0.014767336 0.0061374954
000030 0c 0b 04 bd b0 cd 8b 3c 0d 0a 27 bc 43 9a ea bc
       -0.032237098 0.017065853 -0.010195267 -0.02863801
000040 1c a9 81 3b 08 f1 00 3d 88 f9 79 3c ff 05 91 bc
       0.003956927 0.031479865 0.015257247 -0.017703054
000050 ec 1d ea 3c 26 2c 41 3d 98 55 6e 3d ed e2 84 3a
       0.028578721 0.047161244 0.058187097 0.001013843
000060 80 fc a4 3b af 65 aa bb 67 f9 be bb f3 cc bb 3b
       0.005034983 -0.00520011 -0.005828071 0.005731219
000070 19 d1 8c 3c dd 47 89 bc e8 d2 3d bd 4f 5d b5 bd
       0.01718955 -0.0167579 -0.046343714 -0.08855688
000080 5a 76 6a bc c0 b5 a3 bb f8 37 a7 bc 8f 8a f3 3c
       -0.014310444 -0.0049960315 -0.02041243 0.029729156
000090 b5 ad e2 b9 b3 4c 22 3c 8b 2a f0 bb 09 e4 07 3d
       -0.000432355 0.009905982 -0.0073292903 0.033176456
0000a0 07 b6 5a 3d 49 79 44 3d fd 67 5a bb 5f a5 59 3b
       0.05339625 0.04796723 -0.0033326142 0.003321014
0000b0 ba ea 32 3d 01 17 37 3c 4f ce ce 3b 35 9f 26 3d
       0.043680884 0.011174918 0.006311215 0.040679175
0000c0 56 b1 53 3d c8 78 21 3d 1d 85 1f 3c 5b 9d d7 3c
       0.051682793 0.039421827 0.0097363265 0.02632015
0000d0 a0 09 7e 3d 29 90 85 3c 19 4d 14 bc b8 20 89 3c
       0.062020898 0.016304092 -0.009051585 0.016739234
0000e0 3a 4a ab bb 78 6b a8 bb 14 55 89 bc a0 0c 80 3c
       -0.0052273544 -0.0051397644 -0.016764201 0.01563102
0000f0 11 ac 6e 3c 9d 69 7b bc 5a eb 06 3c 8d 5f 8a bc
       0.014567391 -0.015345004 0.008234823 -0.016891265
000100 c0 9a f0 bb ed 44 79 3c 43 9f 2a 3b 31 3d 38 3c
       -0.0073426664 0.015214187 0.0026034869 0.011245058
000110 03 fe 79 3c 48 65 84 3d ae 53 97 3c 07 64 c4 bc
       0.015258315 0.0646463 0.018472519 -0.023973478
000120 15 98 21 bd 83 be c5 bd 2b 99 5b bd 75 c2 01 bd
       -0.039451677 -0.09655478 -0.05361287 -0.03167959
000130 8a dc 18 bd d0 3e 81 bc f5 59 1d 3d 4f 5d 48 3d
       -0.037319697 -0.015777022 0.038415868 0.04891711
000140 8e dd a1 bd 67 e9 53 bc 14 d0 4b 3c 3f 87 ba 3b
       -0.07903586 -0.012934065 0.012439746 0.005692392
000150 70 3c 96 3c ce 6e 82 3d 3b 78 3d bc 93 cb d3 3b
       0.018339366 0.063687906 -0.01156431 0.006463477
000160 6e 40 f2 3c 0f 98 30 3c 94 e7 14 bd 5d eb 5a bc
       0.029571738 0.010778441 -0.036353663 -0.013361779
000170 c1 b4 cf bc fa 97 3f bc 60 56 47 3d c9 38 bb 3c
       -0.025354745 -0.011693949 0.048666358 0.022854226
000180 7d f1 5c 3c 6c 5e 83 3d 06 c1 c8 3c 57 4a 0c 3d
       0.01348531 0.06414494 0.024506103 0.034250583
000190 67 07 0f 3d 02 ef c1 3d 26 b1 12 bd bc 91 80 bd
       0.03491917 0.09469415 -0.035813473 -0.062777966
0001a0 51 15 1b 3d a6 d2 13 3d 3c dd 9a 3b 66 70 bd 3d
       0.037862126 0.036089562 0.00472608 0.09249954
0001b0 94 87 e0 3c d9 7b 86 3b eb 1f ec 3c 57 27 8d 3c
       0.027408399 0.0041041193 0.028823813 0.017230673
0001c0 07 9d 25 3d 2c c2 a7 bc de bc b9 bc 9c 89 45 3d
       0.040432956 -0.02047833 -0.022673067 0.048226938
0001d0 e5 a6 8f 3c 26 6c 43 3c 34 f7 b2 3c cf 8b 0f bb
       0.017535636 0.01192764 0.021846391 -0.00219034
0001e0 ca 99 71 bd 53 84 12 bd 24 13 74 bc b9 13 4f bc
       -0.058984555 -0.035770725 -0.014897142 -0.01263898
0001f0 97 61 c0 3b 98 8b a9 3c 5c 59 3d bc 3a be 34 bd
       0.0058710086 0.020696446 -0.0115569495 -0.044126727
000200 f7 75 c6 3a 82 d3 ad 3c a4 25 54 3d 64 cb 57 bc
       0.0015141357 0.021219019 0.05179371 -0.013171051
000210 e9 85 17 bd 23 62 27 3d c7 b3 71 bc 21 a1 55 bb
       -0.03699294 0.040865075 -0.014752335 -0.003259726
000220 d7 06 c8 bc dd 36 90 bc ad 08 3e 3d cb 28 60 3d
       -0.024417324 -0.017604286 0.046394993 0.054726403
000230 45 d6 36 3d a9 9c 8a 3a 86 c7 cd 3c ac 59 0b bc
       0.044637937 0.0010575253 0.025119554 -0.008505266
000240 e1 f8 54 3d 50 95 bb 3b 71 d0 d8 3b 9d 3f 6f ba
       0.051995162 0.0057245865 0.006616645 -0.00091266056
000250 49 b5 92 bb 80 03 bb bc 3e c4 82 bc bc 49 81 bc
       -0.0044771773 -0.022828817 -0.015962716 -0.01578223
000260 51 7a 2b 3c 6c 2f f6 3a b9 c3 bd bb 21 75 35 bc
       0.010466174 0.0018782443 -0.005791154 -0.011075289
000270 11 b8 10 bc 1d 38 46 bd 58 0c 82 3c 73 a2 3f 3d
       -0.008832947 -0.048393358 0.015875027 0.046785783
000280 7b 58 6b ba 99 91 4b bc 8d c1 e1 3c 98 b9 fb 3b
       -0.0008977723 -0.01242485 0.027558113 0.0076820366
000290 b4 6c 94 bc 22 1a 69 3d 7b b8 f2 3c 26 04 91 3c
       -0.01811824 0.056909688 0.029628983 0.017702173
0002a0 55 fc f7 bb 4d 82 bb 3c 8a f2 fe bb 9d 45 3d ba
       -0.007567922 0.02288928 -0.0077803778 -0.0007220151
0002b0 04 3e d4 bb 04 de 0d 3b 9a cb d7 bc b7 c1 10 bd
       -0.0064771194 0.0021647224 -0.026342202 -0.03534099
0002c0 34 bc 07 3b 2c 3f 24 3d dc 82 2e 3d 80 d7 b3 bc
       0.0020711543 0.040099308 0.042605266 -0.021953344
0002d0 1f e6 ce bc 21 83 28 3c 6d a5 58 3c 8a 0c 89 3c
       -0.025256215 0.01028517 0.013223034 0.016729612
0002e0 31 fd 24 bd 19 a1 48 bb 19 2a cf bc b5 1f 9a 3b
       -0.040280525 -0.00306136 -0.025288628 0.004703487
0002f0 fc a8 d3 b9 29 56 3d bd c7 9f 9c bb cd 47 ac 39
       -0.0004037096 -0.046224747 -0.004779789 0.00032859892
000300 21 8e db 3c 93 8a 4b 3d 08 80 64 bc 61 91 19 bc
       0.02680117 0.0496927 -0.013946541 -0.00937304
000310 0f 4a 06 3d 15 57 ba bc d2 de 40 3d f9 f0 5e 3d
       0.03278547 -0.022746602 0.047087498 0.05442903
000320 9a ed d0 bc e4 26 d6 3c e1 07 6e bc f3 fd a8 3b
       -0.025503922 0.026141591 -0.014528246 0.005157226
000330 b7 7c 54 3c 83 cc 09 3b 4f 53 86 bc 15 ef 80 3c
       0.012969187 0.002102644 -0.016397147 0.015739003
000340 80 2d d3 3c 84 e9 bc bb 85 57 83 3c aa 8f 53 3d
       0.025778532 -0.005765142 0.016032944 0.05165068
000350 d7 e8 30 3a a8 fd b8 bb dd 5d 88 3d 76 d5 f0 bc
       0.0006748563 -0.0056454726 0.06658528 -0.029398661
000360 65 51 ae bb 5b ab 55 ba 04 98 2a 3b 43 a8 23 bc
       -0.0053197616 -0.0008150839 0.002603055 -0.009988847
000370 22 25 10 bc 62 6d 09 bc 26 a9 2f 3d cb c7 10 3c
       -0.008797916 -0.008387895 0.042885922 0.008836697
000380 8d e6 86 3c 8f d6 b5 3c fd b9 2c bd a5 90 9f 3b
       0.016467357 0.022197036 -0.04216956 0.004869538
000390 14 2e c8 3c e7 46 5f 3d d3 71 b9 bc 8e f7 d9 3c
       0.024436034 0.054510977 -0.022637283 0.026607301
0003a0 b8 f4 1a 3d ac 98 19 bd c5 a2 23 bd 12 6e 07 bc
       0.03783104 -0.037499115 -0.03995015 -0.008265989
0003b0 d5 b2 31 3b fc d1 ab 3c 74 8e a6 3c aa 61 68 bb
       0.002711465 0.020974152 0.020331599 -0.0035458603
0003c0 b8 14 b0 3c a8 dd 4a 3b e4 63 c2 ba c8 e8 e3 3b
       0.021494254 0.0030954871 -0.0014830795 0.00695524
0003d0 49 48 45 3b ed 35 12 bc 57 3c 24 3d c8 0f 26 3d
       0.00301029 -0.00892399 0.040096607 0.040542394
0003e0 c3 1e 55 3a 96 bc 99 bb b0 ab 1a 3d 22 44 61 bd
       0.0008129889 -0.0046916706 0.03776139 -0.054996617
0003f0 05 05 6a 3d 62 06 65 3d 4d 87 15 3c 6f 5b a3 3c
       0.057133693 0.05591429 0.0091264965 0.01994106

bias f4 [32]
000000 b9 63 99 bd 55 1f 84 3d ec 1d 4f 3d d4 d8 a1 3c
       -0.07489724 0.064512886 0.050565645 0.019756712
000010 d8 74 a4 3d 20 96 9f bd d6 e0 a6 bd 7a bf 9d bd
       0.08030099 -0.07792306 -0.08148353 -0.07702537
000020 69 d2 6a 3d ce 4b f1 3c fc 03 ab bd 26 b4 fc bc
       0.05732957 0.029455092 -0.08350369 -0.03084762
000030 82 f6 d4 bd 9b 17 0f bd 28 19 62 3d cc b5 a0 bd
       -0.1039858 -0.03493462 0.055199772 -0.07847175
000040 b2 77 df 3d 17 21 c6 3c 50 bb 24 3d c9 06 d7 3d
       0.10911502 0.0241857 0.040217698 0.10499341
000050 e7 61 79 bd 95 04 c5 bb 85 95 bf bd 24 34 08 bc
       -0.060884383 -0.006012509 -0.093546905 -0.008313213
000060 4f 88 62 3d 37 f6 0d 3d db 44 c0 bd d2 9f 6d 3d
       0.055305775 0.034658637 -0.09388133 0.058013745
000070 88 b8 a2 3c 23 10 91 3c c3 72 5d 3d 3b 4f 57 bd
       0.019863382 0.01770789 0.054064523 -0.052565794
