trained_model/ESPCN_multiframe/model_demo.pkl (torch, 269403 bytes, 12 tensors)

weight f4 [64, 9, 5, 5]
00000000: 8900 e43c c4de 23bd bd74 823b 7725 0e3d
00000010: bd53 88bd 313e 2d3c c3d5 173c 810e b6bc
00000020: c910 9b3c 620d 363b b971 b03c b9e5 3c3d
00000030: cf17 be3c 9b23 2f3c 13ae e33c 515c 1ebb
00000040: 7891 4ebc d14b 653d 1af4 783c b381 62bb
00000050: 00a9 8abc 1445 58bc ce7e 513c 69a2 aebb
00000060: 6912 913b 6cdc db3c 8e17 c43b 89cd 9e3c
00000070: 82b0 123d 7214 d53b 7dbc 90bc 30fb 4f3c
00000080: 175e 99b9 0b1b b4bc 4f46 95bc c6d5 efba
00000090: 28d6 ff3b 629c 983c a52c 743c 8162 e9bb
000000a0: 45ff 193c f312 c0bc 166a a13c 2960 d23c
000000b0: 606d 5b3b 54a4 8a3b 6539 8a3c c531 ff3c
000000c0: 3253 023c 1d3f 8e3c 59b5 5fbc 0d97 a03c
000000d0: 258c 73bc a97a 1cbd 82cf 79bc c87a 94bc
000000e0: ebaf 8dbb 9444 d5bb a6cc 9abc 5e25 e0bc
000000f0: b3f3 c9bb f4f6 643c f3a3 b4bc 37b1 9dbc
00000100: 7583 28bd 2426 4f3c 0f8b 13bc 0be7 8d3c
00000110: 8db4 873c ba5f 563a 5a1b af3c 24a0 f53b
00000120: dfd1 263d fc5b 65bc ff4c 0b3d 9e11 5dbc
00000130: db16 0d3d 4627 5f3b d8fd 133c 05ef f9bc
00000140: d048 8dbc 09fa 43bd 2409 3b3d cbed de3c
00000150: 812d a7b8 1edc 86bc 35be c03d b6c8 543c
00000160: 6fce 1a3d e8f4 003d 77b7 853b e7d3 a23c
00000170: bba1 613d 21a9 af3d 3254 a3bc 3039 a23c
00000180: b56c 9d3c c9f9 babc 59d7 11bd 4b5e 4e3d
00000190: 9bb3 113d 8162 1d3d 6fa4 293d 1124 1cbd
000001a0: 646f 3c3c 3242 02bc b5f4 423b 38ff 353d
000001b0: 2f0e e93c 7190 7c3c 0982 03bd 8a75 d03d
000001c0: 19c7 14bd 9940 3d3d da10 a63b c310 1e3c
000001d0: 4064 0f3d 1dee 38bb e126 d73c ccd9 b9bc
000001e0: 10a7 2e3c 3638 9bbc fd4f 27bd 82c1 5cbc
000001f0: 8118 293c 0d45 8c3b 1eea 7abb 16d0 5ebc
00000200: fe7b acbb 30e5 71bc 48db 7c3c a724 5b3c
00000210: 3592 423c 127d c53b 4a2f 003c 83a7 c5bc
00000220: a892 6d3c 535f c4bd 5c82 fabc 2975 5cbb
00000230: caa7 6ebd 2b0b 053c 675b 9ebd 5b8f 813d
00000240: 12e2 413d 793c 953c ac81 613c 80c2 01bd
00000250: fea4 eebb 017a 373d 30ff 0e3c 9048 08bd
00000260: 594a cf3c 3d22 9ebc 14db 313a 6500 dc3c
00000270: c380 f0ba fdff 9e3a 3659 eaba 03ad d0bc
00000280: 4bb1 533c e884 ebbc 3c3a 963d 4f75 be3c
00000290: 02f8 a63b 63eb b23a d892 e33b 080a c93c
000002a0: d2be 373c cb06 8cbc 63fc e43c 49ad 7fbc
000002b0: 48f8 ba3b e780 893c b2c1 74bc f3d5 353c
000002c0: fc06 10bd 63be 013c bf42 44bd aeb6 a3bc
000002d0: 80f1 a33c d37e 193c e5f1 c9bb 12d3 03bd
000002e0: d274 0cbd 228f bf3c 3c15 033b cc26 dfbc
000002f0: cdd3 9d3c e7a8 663b c904 773c dd76 9abc
00000300: 2e8a 23bc 4e98 1abd 30ce 6cbc bf55 193d
00000310: fa5c 48bc e9b9 eb3c 94cc 0dbc 49d0 e9bc
00000320: 34cf b63b 8260 0d3d bb6d 033c f982 a63b
00000330: b29d 753b 6a55 66bc 81e6 9dbb c2d5 813b
00000340: ee06 1dbd fa1e eb3a 1a33 463c e8b3 043b
00000350: 08c8 96bc c88d 56bc daeb ad3b 8c2a 133d
00000360: f0c3 c33c 636e e13a f39e ac3b 1a8f c63c
00000370: 2a4b de3b 8103 9cbc f069 053b 2cf2 e13c
00000380: 84d6 9d3c b538 9d3c fb51 a7bc d7db f5bc
00000390: 9f05 0dbc 162e 72bc 66f8 033d ac8c 91bb
000003a0: 209c 1f3d 0943 78bc 3b8a 01bc 7248 c03b
000003b0: c3d0 e1bb 5460 f2ba f677 abbb 4ddd 863c
000003c0: beee 873c e68e 53bc 899a a9bb fdc0 853c
000003d0: 1677 93bc 2378 e3bc d45f 02bd af6c c5bc
000003e0: 65c5 d4bb 3fec 40bc d029 063c 1fff 8abc
000003f0: ce97 0a3d 055f f73c dd73 403c d34f 9fbb
0.027832286 -0.040007368 0.0039812014 0.034703698 -0.06656597 0.01057391 0.009267273 -0.022223713
0.018928902 0.0027778973 0.021538602 0.046117518 0.023204712 0.010689641 0.027792966 -0.0024163912
-0.012607925 0.055980507 0.015194917 -0.003456217 -0.016926289 -0.013200063 0.01278658 -0.0053294194
0.0044272435 0.026838504 0.0059842533 0.019385116 0.035812862 0.0065026814 -0.017668003 0.012694165
-0.00029252536 -0.021985551 -0.018222002 -0.0018297962 0.007807512 0.018629257 0.014903222 -0.0071223383
0.00939924 -0.023446536 0.019703906 0.025680618 0.003348194 0.004231015 0.016873071 0.031151662
0.007954406 0.01736408 -0.0136540765 0.019603277 -0.014864956 -0.038202915 -0.015247228 -0.018124953
-0.0043239496 -0.0065084193 -0.018896412 -0.027361568 -0.0061630844 0.013974894 -0.022050833 -0.019249542
-0.041140992 0.012643371 -0.009005322 0.017322084 0.016565586 0.00081777165 0.021375347 0.007495897
0.040727492 -0.013998982 0.034008976 -0.01349297 0.034445625 0.0034050508 0.009032689 -0.030509481
-0.017246634 -0.047845874 0.045663014 0.027212998 -7.971656e-05 -0.016462382 0.09411279 0.012987306
0.037794527 0.03148356 0.0040807086 0.019876434 0.05508588 0.08577181 -0.019937608 0.01980266
0.019216875 -0.022824185 -0.035605762 0.050382894 0.035571676 0.03842402 0.04141658 -0.038120333
0.011501167 -0.0079503525 0.0029747908 0.04443285 0.028449146 0.015415297 -0.032106433 0.10178669
-0.036322687 0.046204183 0.005067927 0.009647551 0.035007715 -0.0028218098 0.026263656 -0.022686861
0.010659948 -0.018947702 -0.040847767 -0.01347387 0.010320784 0.0042806924 -0.0038286517 -0.013599416
-0.0052638045 -0.014764115 0.01543314 0.013375438 0.011875679 0.0060268724 0.007823775 -0.024127727
0.014500298 -0.09588494 -0.030579738 -0.0033639169 -0.058265485 0.008120338 -0.07732277 0.06326171
0.047334738 0.018217312 0.013763826 -0.03167963 -0.007282852 0.044794086 0.008727834 -0.033272326
0.025304006 -0.019303435 0.00067846593 0.026855657 -0.0018348921 0.0012130734 -0.001787937 -0.025473123
0.012920688 -0.028749898 0.07335326 0.023249296 0.005095483 0.0013650473 0.0069449954 0.024540916
0.011214929 -0.017093083 0.027952379 -0.015605279 0.005705867 0.016785098 -0.014938759 0.011098373
-0.03516291 0.007918927 -0.047915217 -0.01998457 0.020012617 0.009368616 -0.0061628693 -0.032183714
-0.034291096 0.02338368 0.002000167 -0.02724018 0.019266034 0.0035195888 0.015076824 -0.018855507
-0.009981675 -0.037742905 -0.014453456 0.03743529 -0.012229199 0.028775172 -0.008654732 -0.0285417
0.0055788998 0.034515865 0.008021767 0.005081531 0.0037478027 -0.01405845 -0.004818738 0.0039622495
-0.038336687 0.0017938309 0.0120971445 0.0020248834 -0.01840593 -0.013095327 0.0053076567 0.035929248
0.023897141 0.0017199036 0.0052679717 0.024238158 0.0067838626 -0.01904464 0.0020357333 0.027581297
0.019267328 0.01919208 -0.020424834 -0.030012054 -0.008607297 -0.014781496 0.032219313 -0.004441818
0.03896725 -0.015152701 -0.007906492 0.005868011 -0.0068913414 -0.0018491843 -0.0052328063 0.016462946
0.016593333 -0.012912488 -0.0051758927 0.016327376 -0.01800112 -0.027767247 -0.03182967 -0.024099676
-0.006493258 -0.011775075 0.00818868 -0.016967354 0.03383618 0.030196676 0.011746374 -0.0048618107

bias f4 [64]
00000000: 4485 023d d6a1 a53d 476b 303e 0ded 003d
00000010: 74e9 693d d884 193d e55c 823d 6c13 073d
00000020: 35c3 c63c 0ceb b23b cdee 013d 5e04 043d
00000030: 7f4d d93c 6b1c 883d 1ab3 433d 9894 b53b
00000040: d5a3 253d b73b 103e f7de a83d 01b1 1e3d
00000050: d14a d03d 693d 053e f3f9 233c e4fe 073d
00000060: 91de 33b8 36b2 043d c783 ce3d 9e22 0a3c
00000070: 6ad3 dc3d 1b10 143d b9ab 2b3d e618 a53d
00000080: c76e cd3c 9051 f23d b9e3 143e 05c0 8638
00000090: ce2c fd3c 4578 c93c 488b d93b 5bc0 773c
000000a0: 26ad cf3c a68f 6d3c b86b 753e f8a0 9c3d
000000b0: 3b31 0e3d eab7 653d 9e6a eb3d 05b0 983d
000000c0: 6d10 b53d 1f56 a23d 3a4f 523d 0671 bc3d
000000d0: 9a37 ca3c 8b7d e53d 928b 4b3d d7fd c53c
000000e0: d51c 4f3d cd13 9e3d 874e bb3c 9958 433d
000000f0: 9083 913d 86ed bb3c a537 6c3c a3db b43d
0.031865373 0.080875084 0.17228423 0.03147607 0.057107404 0.037480205 0.063653745 0.032977507
0.024263004 0.0054601487 0.03172188 0.032230727 0.02652621 0.06646045 0.047778226 0.0055413954
0.040439446 0.1408528 0.08245652 0.038743023 0.1017052 0.13011707 0.010008323 0.033202067
-4.2884207e-05 0.032396518 0.10083728 0.008431105 0.107825115 0.036148172 0.041911814 0.080613896
0.025077237 0.11831963 0.14539994 6.425384e-05 0.030905154 0.024593482 0.006638918 0.015121545
0.025351118 0.0144995805 0.23966873 0.0764789 0.03471492 0.056083597 0.11494945 0.07455448
0.088410236 0.079265825 0.051345088 0.09201245 0.024684716 0.11205586 0.04969365 0.024168892
0.050564606 0.077186204 0.022864593 0.047691915 0.07105172 0.022940408 0.014417564 0.08830955

weight f4 [48, 64, 3, 3]
00000000: 6cbb 2dbc e141 f4bb 9f82 ccbc 7492 2f3c
00000010: 2eb7 41bc 8c89 9b3c a48f ce3c 5d4b 0d3d
00000020: 195f 943c 48b6 633c 39ea 4d3c f2d2 903c
00000030: 56bd 583d 738f 14bb 2ac7 2cbc b80a 71bb
00000040: 827d 333b 0173 3ebc 0b25 4a3c 3050 933c
00000050: 4523 093d 62d2 e6bc 68ab 243d 138a 1b3d
00000060: e960 013d c777 c93c 0de8 903c d9c5 ce3c
00000070: 2089 733d 2667 0fbc 8fc2 563d 5d17 283d
00000080: 5a57 7d3c 72e8 b93c 06e3 433d 05cd f4ba
00000090: 71bd 173b b87a db3c f1c5 9b3c 4f04 193d
000000a0: 1d83 613c ea85 35bc a03c 063d 7d1f 5c3b
000000b0: 155d 0f3d 4bdf 03bd f1aa 7dbd 2b6d e43c
000000c0: e60f b5bc 7d4a 9dbd 90a8 26bd 359a 6dbd
000000d0: 6c42 33bd 3e92 53bc b901 00bc 613c 2e3d
000000e0: 75c0 09bc 9116 66bc 1789 743c e250 613d
000000f0: 9548 59bc 6f1f 69bc 57d7 73bb 169d 3bbc
00000100: 594f 77bd ff52 8a39 0d47 08bd 9657 60bd
00000110: 003a 42bc e707 23bd 3cdb a5bd 5e4a 833c
00000120: 64df 783a 2786 a43c e945 373c abc4 f8bb
00000130: 34c8 afbc 56b1 dc3c fab2 5f3b 8884 e03c
00000140: f795 fd3c c7d4 263c 199c 9d3c ac6b 4e3d
00000150: 74fc fe3a 2d59 ad3c 77cd db3c c21b cf3c
00000160: d0cb 8dbc 75ae eb3c 0666 22bd c369 37bd
00000170: 521e 91bc 7841 91bc 7c78 85bd 3b27 88bd
00000180: d0bc 0bbd 14db 58bd 11d9 8fbc 1c0b 3cbc
00000190: edc6 32bc 816f c33c b3b3 233d 87ca b33a
000001a0: 190b 2fbc 71d2 023d 40d2 62bc 7c7b 063d
000001b0: a3b5 ebbb 5887 0fbd 6c99 06bc 6a0c d5bc
000001c0: 09cf 73bd 1709 1dbd d2e0 5fbd 24e9 16bd
000001d0: aaf2 d0bc a2c8 4a3c 2235 59bb 36a5 f73c
000001e0: 6f96 dc3b 5619 493c 4394 523d 5e85 be3c
000001f0: 5542 e93b 8fa4 bfbb fb01 b33b cc52 9fbb
00000200: 7c2f 16bc 9552 d23b 0cbb 26bc cd2a a43c
00000210: b824 a63c b7e2 723b 0fc6 3a3d 3d0e 95bc
00000220: 7571 06bd 64f1 2f3d 8078 033d d582 d83b
00000230: b006 603d c3f0 b13c c039 05bb 5ab5 113c
00000240: a76f 3abd bc36 6bbc 8515 beb9 9d2d 29bc
00000250: fc25 a43b 8ded 1f3d 3e9e 9f3c ce4f 433d
00000260: a22a 143d 2c3c cf3b dd50 1cbd 6695 253c
00000270: 6f40 8bbb c60b b4bc 2fcd 703d 6bc6 dc3b
00000280: 2dfc 4cbc b676 6c3c 027b d63b 76ed bebc
00000290: d0ca 4a3c 04c7 c53a f67b 6d3b 24e5 17bd
000002a0: c774 8b3c 70cc af39 174c 4abd e308 223b
000002b0: 7940 163d c073 c73b 47ed a0bc 8b23 1b3d
000002c0: 6f35 103d c6c5 203d 8af9 923d 4d99 be38
000002d0: 3ee9 da3c a702 9d3b f9f9 08bd 0d6a 6e3c
000002e0: ea3f 32bb 0480 873c 4346 d43c 74b6 b93c
000002f0: 65f9 afbc 4e11 b53c 5de8 183d f240 ce3c
00000300: f3ef 993c 380a 4cbc 2a17 803a 9bb0 27bd
00000310: f9cf ae3c 374a e3bc 70bd 493d e064 b03c
00000320: 492a a43c 8957 b23c 9524 44bb fcb1 c63c
00000330: 87fd 973c f393 56bb 4fc4 a7bc 907a 5a3c
00000340: f96b 7dbb 5434 dfbb 29b2 5a3d ab55 b0ba
00000350: 5527 76bc 0643 08bc 9989 043c 2a1d b83b
00000360: 7eee 893c 819b 173c 2832 093d b4b2 073c
00000370: 1287 033d e677 5dbb b12f c73c 5801 833b
00000380: ac5b 4abc 60c1 b2bb aefe 13bd f500 c8bc
00000390: 5f68 47bd a01f 88ba 0f1e 07bc adf9 f93b
000003a0: fb46 2c3d 9ddb d53c ce3d bc3b 8633 2d3d
000003b0: 7773 f43c cb16 463c 98c0 cabc 92aa d03c
000003c0: 213f 313c 909c 1a3d e05c 9c3c e7b3 50bc
000003d0: 4d88 eebc e0a8 073d abf4 febb a39b a03c
000003e0: e4f3 3f3d b7e4 e23c 7d8e 383d dab7 ae3a
000003f0: 187c 013d 562b 603d 14ad b0bb d29d c8bc
-0.010603767 -0.0074541424 -0.024964629 0.0107160695 -0.011823459 0.018986486 0.025214978 0.0344957
0.018111752 0.01389844 0.01256805 0.017678712 0.05291494 -0.002266851 -0.010545531 -0.003678007
0.002738804 -0.011624099 0.012337933 0.017982572 0.0334809 -0.02817649 0.04020253 0.037973475
0.03158656 0.024593247 0.017688775 0.025240825 0.059456944 -0.00875262 0.05243164 0.041037906
0.015462721 0.022693846 0.04782393 -0.0018676823 0.0023153687 0.026791915 0.019015284 0.037357625
0.01376417 -0.011079291 0.03277266 0.0033588104 0.03500088 -0.03219537 -0.0619306 0.027884087
-0.022102308 -0.07680223 -0.040688097 -0.05800839 -0.043764517 -0.012913285 -0.007812911 0.04253805
-0.008407702 -0.014043466 0.014925263 0.055008776 -0.013261934 -0.014228686 -0.003720721 -0.011451026
-0.060378406 0.00026383248 -0.033270884 -0.05477103 -0.011854649 -0.039802458 -0.08098456 0.016026672
0.0009493737 0.0200835 0.0111861015 -0.007591804 -0.021457769 0.02694003 0.0034133778 0.027406946
0.030955298 0.010182566 0.019239472 0.050395653 0.0019453899 0.021160686 0.026831372 0.02528179
-0.0173091 0.028769711 -0.03964808 -0.044778597 -0.017714653 -0.017731413 -0.06517121 -0.066481076
-0.034115613 -0.052943304 -0.01755956 -0.011477258 -0.010911685 0.02385688 0.039966296 0.0013716974
-0.010683798 0.031938974 -0.013844073 0.032832608 -0.0071932836 -0.035041183 -0.00821529 -0.026006896
-0.059523616 -0.038338747 -0.054657765 -0.036843434 -0.025506336 0.012376936 -0.0033143242 0.030230146
0.0067318003 0.012274107 0.051410925 0.023256954 0.007118503 -0.0058484743 0.0054628826 -0.004862165
-0.009166595 0.006418536 -0.010176431 0.02003994 0.02028118 0.0037061402 0.04559904 -0.018195266
-0.032823045 0.042954817 0.03209734 0.0066073933 0.054693878 0.02172125 -0.002032861 0.008893335
-0.045516636 -0.014356311 -0.00036255657 -0.010325816 0.005009411 0.039044905 0.019484635 0.04768353
0.03617347 0.0063243117 -0.038163055 0.01010642 -0.0042496244 -0.02197827 0.05878943 0.0067375205
-0.012511295 0.0144326 0.0065454254 -0.02330659 0.012377456 0.0015089219 0.0036237217 -0.03708376
0.017023457 0.0003353092 -0.04938897 0.0024724535 0.03668258 0.0060867965 -0.019644393 0.037875693
0.03520721 0.03925111 0.07176502 9.0884605e-05 0.026722547 0.004791576 -0.033441518 0.014551652
-0.002719874 0.016540535 0.02591241 0.022670008 -0.021481225 0.022102978 0.037330974 0.025177453
0.018791175 -0.012453608 0.0009772528 -0.04093991 0.021339403 -0.02774535 0.049252927 0.021532476
0.020039694 0.021770256 -0.002992903 0.024254791 0.018553508 -0.0032741993 -0.02047935 0.013334885
-0.0038669093 -0.006811658 0.053392563 -0.0013453265 -0.015024026 -0.008316761 0.008089446 0.005618711
0.016837355 0.009253384 0.0334951 0.008282352 0.032111235 -0.003379339 0.024314733 0.003997963
-0.012350958 -0.005455181 -0.036131553 -0.024414519 -0.04868352 -0.0010385402 -0.008246913 0.0076286406
0.04205988 0.026105696 0.0057446724 0.042285465 0.029840214 0.012090395 -0.024750039 0.02547196
0.010818274 0.037746966 0.019087255 -0.012738205 -0.029117728 0.033120036 -0.0077806315 0.019605463
0.04686345 0.02769695 0.045057762 0.0013329939 0.031612486 0.05472883 -0.0053917263 -0.024489317

bias f4 [48]
00000000: e1f7 373c 9129 94bc 1594 593b 5d7d 1a3d
00000010: f9b0 8abb 5b79 123e 761d 1f3e 1efd fd3d
00000020: fcdc 143e 1046 733d 02d6 13bd 7807 373c
00000030: ef51 023d 6aa5 83bc 83b3 483e 7770 7f3d
00000040: 1724 0a3e 8e29 40bd 243f 203d b6c4 b03c
00000050: 0a51 983d 4c32 6d3e 74ef a03d 88fb ab3d
00000060: 1b2a 6c3e d4a3 37bb 5021 0b3c 572c 1a3d
00000070: 8de6 ce3e de6d 6abd feb4 d43c 5703 58bc
00000080: 1885 08bd 01c8 8cbb 5d83 9cb9 3b4e f73d
00000090: 801c a33d e33f 863d 79bf 153e dd9b acbc
000000a0: 2d26 17bd aa52 5abd 3fb1 da3e 613e 3c3d
000000b0: 2de8 cebc a273 fd3c e700 263e 5d0e 203d
0.0112285325 -0.018086227 0.0033199836 0.037717212 -0.0042325226 0.14304106 0.15538582 0.12401794
0.14537424 0.05939299 -0.036092766 0.011171214 0.03181642 -0.016070087 0.19599728 0.062363114
0.1349033 -0.04691463 0.039122716 0.021578174 0.07437332 0.23163718 0.07858172 0.08397585
0.23062937 -0.0028021233 0.008491829 0.037639942 0.4041027 -0.057233684 0.02596521 -0.01318439
-0.033330053 -0.0042963033 -0.00029852512 0.12075468 0.0796442 0.06555154 0.14623822 -0.021070415
-0.03690164 -0.05330149 0.42713353 0.045957927 -0.025257194 0.030938927 0.16211282 0.039076198

weight f4 [32, 48, 3, 3]
00000000: b8cd 99be 822a 97bd bba0 d1bd 525f 3e3d
00000010: 45ed 74bc 2547 b83c 0cbb b1bc 446e 12bd
00000020: 9a33 34bd bb2b 84bd f6c6 0d3e 7ff7 73bd
00000030: 37ef 6dbd 66f9 81bd 6c8c b5bd 3ffe a0bc
00000040: b61d 4f3c 60ee 803c 678b 61be cf7a 0b3e
00000050: 1115 4dbd 1350 373d 6d49 44bc 3ecc 1ebb
00000060: da02 6bbd 054c 08bd eb18 e73b 27e5 ea3d
00000070: c3e2 463e 8425 583d 2ed9 873c e2b5 f5bd
00000080: e43e a1bd da07 bf3d b746 d23d f7f2 a43c
00000090: 5290 d4bc 4280 823b 3e78 933c f1b8 9439
000000a0: fa7b 473b c179 1f3d 985b 25bc 3b97 573c
000000b0: 61a0 06bd 572b 86bd 4cfb c23e a1a1 4c3e
000000c0: 185e 6f3c 7f8d be3d 504f a13d 606c 0ebd
000000d0: 3d5b b93d f107 9a3c cf7e 5bbe 584a 583e
000000e0: 15af a53d 1e92 6c3d 3492 a73d f0e9 a03d
000000f0: 4406 1cbd a62f 8e3c 4c42 5e3c 0cae 6dbc
00000100: b645 aa3e 741e bf3d 5935 b83d 1f19 e33d
00000110: 1fd1 a43d dd41 95bd a4cb 473c 1a51 93bd
00000120: fe87 7abe 460c a53d ac54 13bd 1e17 a63d
00000130: 5263 c23d 52b4 653d 9d22 ec3c 3614 b8bc
00000140: fd94 9c3c fe34 44bf 7535 f2bd 156e c93e
00000150: a442 5d3e fbca 2abf ddbc d13b 07ed 0c3e
00000160: 101f 41be a050 95bd 0e40 873e 7990 fa3d
00000170: b715 96be 998f 79ba 31e3 b03d aded 233c
00000180: 5795 b43d ef99 923d 1db6 c1bc 9a1f 2e3d
00000190: 7ad8 f83d 72b4 1ebe 1277 31be 2223 1abe
000001a0: f32e 503e a154 1e3d cb18 9fbb b25d f0bd
000001b0: 4610 0fbf 7c9f c8be a1d9 93be 6d7d ccbd
000001c0: 614d 1ebd 9c4a e7bd f971 fdbc 44aa 98bd
000001d0: a635 33bd 3926 94be db4e d9bd f5fc 14be
000001e0: 1e0c be3d d281 97bc 9a43 e6bb c584 5ebc
000001f0: 6960 a93c 09b3 17bd 5e88 d4bb 6730 a13e
00000200: c347 59bd 836d 383d 2e0f 52bd afe0 b0bd
00000210: 0148 9dbd 8a5d 703d 3c5e a9bd b960 23bd
00000220: a416 373e aeb6 e63d d29c 923d a9f5 483d
00000230: 5e7f 3f3b ef3e 623c abab f13c d835 75bc
00000240: 7979 63be 63d6 373e 0103 d33c a4a3 17bd
00000250: 0cda 17bc 8eef 263d 7b65 873b 5285 a43c
00000260: f696 f7bc 1612 643e fb18 cc3d 5673 893d
00000270: 6800 d4bd 41c0 c4be 3a30 b5bd 426b 1f3e
00000280: b513 ae3d 5000 0e3d 2e96 02bf 11ac 7bbe
00000290: 00d8 5abd 9e59 8dbd e9e1 553d 0d40 983c
000002a0: 7c6c 043d 6364 77bc fde3 823d ca3a 313d
000002b0: 642f 123e 12f1 b3be 39e6 d63d beda 333d
000002c0: 2f27 373d 49ad 7f3c 8833 98b9 0055 36bd
000002d0: 54fc 7bbe 6a4d e7bd 3c8b 9dbe 16e8 3d3d
000002e0: 0715 a03c 536a 78bc d78c 95bd 07b6 14bd
000002f0: cec3 06be 0d19 b2be 0edb 793d 8a3f 11bd
00000300: 2ba4 943c fc84 e03d fd5a 803d 04a2 98bc
00000310: 4cf6 d83c 1d28 a5bb 2a3a fa3c 9a79 233e
00000320: 773f 2ebb b7bf b63d 7b44 ec3d c28f 363d
00000330: 8ec8 e1bd 6e73 22bc f93e 40bd 23ed 7c3c
00000340: 7a0a 293e 473b 6ebd b126 b2bd 89c6 4c3d
00000350: 22e7 f13d eac9 9bbc d85e 0e3e 9471 35bd
00000360: c92e edbc 67f7 ca3e d9c5 253e 92ea b73d
00000370: ceeb 543e ccd5 9a3d 0748 7abd a1d5 853d
00000380: 9ccc 76bc 740f 8a3e 15cb af3d 545a bbbb
00000390: 060f 34be dda1 c5be 1413 b1bd 58db 3f3d
000003a0: c9a0 1a3d 5561 fabc 76b0 9cbe c5de 11be
000003b0: dcd6 a6bd de5f a03c 490d b6bd 3952 ec3d
000003c0: a6b7 e03d 3eb6 263d 016c aa3d 188d d0be
000003d0: 095e 27be 55c4 5bbe 5277 6a3d 806c 1e3d
000003e0: a6d9 823d db0f 373d bd36 5f3c 75ef 1ebd
000003f0: 4458 3d3d 8c81 713e 95d1 0fbe cd37 cc3d
-0.30039763 -0.073811546 -0.10235735 0.046477623 -0.014949148 0.022494862 -0.021695636 -0.03574969
-0.043994524 -0.064536534 0.13845429 -0.059562203 -0.05808946 -0.06346397 -0.08864674 -0.019652484
0.012641361 0.015738666 -0.22025834 0.13621067 -0.05006892 0.0447541 -0.011980397 -0.0024230625
-0.057375766 -0.033275623 0.007052531 0.114694886 0.1942244 0.052770153 0.016583052 -0.11997582
-0.078733236 0.093276694 0.10267394 0.020135386 -0.025947724 0.0039825747 0.018001672 0.00028366552
0.0030438886 0.038934473 -0.010092638 0.013158615 -0.032867793 -0.06551235 0.3808235 0.19983532
0.014609836 0.09304332 0.07876456 -0.034771323 0.090506054 0.018802615 -0.21435092 0.2112211
0.08090035 0.057756536 0.08182183 0.0785712 -0.038091913 0.017356705 0.013565611 -0.014506828
0.3325631 0.0933198 0.0899455 0.11088776 0.08047699 -0.07287953 0.012194548 -0.07193203
-0.2446594 0.080589816 -0.03596942 0.08109878 0.094916 0.05608017 0.028825099 -0.022470575
0.019114012 -0.7664336 -0.11826602 0.39341798 0.21607453 -0.66715974 0.006400688 0.13762294
-0.18859506 -0.072907686 0.26416057 0.12234587 -0.29313442 -0.0009519994 0.08637083 0.010005397
0.08817547 0.07158267 -0.023646409 0.042510606 0.12150665 -0.15498522 -0.17330578 -0.15052465
0.2033041 0.038654927 -0.0048552505 -0.11736621 -0.55884206 -0.39184177 -0.28876975 -0.099848606
-0.038648013 -0.112935275 -0.030938135 -0.074543506 -0.043752335 -0.28935412 -0.106107436 -0.1454962
0.09279655 -0.01849452 -0.0070271017 -0.013581459 0.020675855 -0.037035976 -0.006485983 0.3148224
-0.053046953 0.045026314 -0.051284008 -0.08636605 -0.07679749 0.058682956 -0.08269927 -0.039887164
0.1787973 0.11265312 0.07158817 0.049062405 0.0029220204 0.01380895 0.029500803 -0.014966451
-0.22214307 0.17952876 0.025758268 -0.037021294 -0.009268295 0.0407558 0.0041319705 0.020083103
-0.030223351 0.22272524 0.09965702 0.06711452 -0.1035164 -0.38427928 -0.08847089 0.1556826
0.084998526 0.034668267 -0.51010406 -0.24577357 -0.05342865 -0.06901859 0.052217398 0.01858523
0.03233002 -0.015099618 0.063911416 0.043268956 0.1427589 -0.3514486 0.1049313 0.04390978
0.044715103 0.015605279 -0.00029030093 -0.044514656 -0.24607974 -0.112940624 -0.3077029 0.046363913
0.019541277 -0.015162068 -0.07302254 -0.036306407 -0.13160631 -0.34784737 0.060999922 -0.035460986
0.018144688 0.10962865 0.06267355 -0.018631943 0.026484631 -0.0050401823 0.030545313 0.15964356
-0.002658812 0.089232855 0.11536499 0.044570692 -0.11024581 -0.009915216 -0.046935055 0.015437397
0.16507903 -0.058162 -0.08698786 0.049994025 0.11811663 -0.019017179 0.13903368 -0.04429777
-0.028952973 0.39641878 0.16188754 0.089802876 0.20793077 0.0756031 -0.061103847 0.06534887
-0.015063431 0.26964915 0.08583657 -0.005717555 -0.17583856 -0.38600054 -0.08646217 0.046840042
0.037750993 -0.03056399 -0.3060338 -0.14245136 -0.0814645 0.019576963 -0.08889253 0.1153912
0.10972528 0.040701143 0.08321381 -0.40732646 -0.16344465 -0.21461613 0.0572427 0.038677692
0.063891694 0.044692855 0.0136238905 -0.038802583 0.046226755 0.23584574 -0.14044793 0.09971581

bias f4 [32]
00000000: 4ed1 4a3f daf2 043d 1eac 65bd 9315 83bd
00000010: bb6f 1d3e 05b4 0d3c 724e 523e 3b9a 553e
00000020: 1201 a7ba 8feb 363e ee2d 31bd a8ff 903e
00000030: 120d f53d 5c1a d53c 61e1 563e d7c9 8f3e
00000040: b5e7 063c 444f 363b a98f 293e f782 51bd
00000050: 88ea 763d e699 963e 7c6f 273e aebf 14bc
00000060: 7198 5fbb 21ff 0d3e 8a69 f1bd 9bbd 7a3f
00000070: b3de ad3e 942d d03d bb76 743e f915 a53b
0.79225624 0.032458164 -0.056072347 -0.06400599 0.15374653 0.008648877 0.20537737 0.20859616
-0.0012741408 0.17863296 -0.043256693 0.2832005 0.119653836 0.026013546 0.20984413 0.2808368
0.008233954 0.0027818242 0.16558708 -0.05115029 0.06028226 0.2941429 0.16351122 -0.009078903
-0.0034117962 0.13866855 -0.11787708 0.97945565 0.3395897 0.10164943 0.23873417 0.0050380197

weight f4 [24, 32, 3, 3]
00000000: af47 143e 931a 23be 9c78 29bc ac1b 013f
00000010: 54c0 dcbe d7f9 7fbd a120 ea3e a062 56bf
00000020: 17a3 cbbf f1c5 7cbd 664c 43bd 1704 293d
00000030: e9b1 f7bd b0bd 00be bbde a8bd 3a01 a1bd
00000040: 0be1 85bd 7f8b 58bd 28ae 0bbc b7ef 163c
00000050: ce60 1d3c 07c1 2b3d 2f86 783d b694 49bc
00000060: e45f 42bd 8012 b2bc 6076 11bd e400 503d
00000070: 8bc7 3e3d ba3e 08bd 4959 243d 9cb9 aa3c
00000080: 28c0 8fbc d473 6d3c 1522 0dbd e6bb 56bd
00000090: ccac c73d 53d4 04bd a056 f8bc 00d3 85bd
000000a0: 422c aa3c c818 3ebc 47af 8d3d 970c e53a
000000b0: 44dd 4a3e 116a 3a3d c392 8a3d ddaf 6d3d
000000c0: 83a9 2cbd 529a 973d 0caa b9bc 47f1 3d3d
000000d0: 0395 143d 805e da3b 45f6 043d d95c 87bd
000000e0: f8e3 333d eabc 9e3c ce79 6f3d 70a7 683d
000000f0: afdb 1c3d 920d 8bbc 6423 013e ef77 f53d
00000100: baba a3bd fff5 943d 2591 eebd 0d82 9a3c
00000110: 966b 0cbd b391 053e b80a b6bd 9861 093e
00000120: 86ba 1b3d c74b 073d 978c b83c 7280 263d
00000130: da96 b53c 581f 06bc 2f49 813c 40a7 8fbc
00000140: 4377 c6bc a04d b1bc b892 c83c 2d13 883d
00000150: 57da 84bc 529b 9b3d d41f 263d c960 3d3d
00000160: 3fc6 623d 1290 c73c 031c 693b c56e 9e3d
00000170: 4b66 123d be66 123d a0c3 5bbc 6605 423c
00000180: 8c3f 13bd 2758 d23b dbd3 32bd d250 a6bc
00000190: 197f 2cbd 38a6 5e3c dd21 37bd e974 c5bd
000001a0: dac8 153e 5849 73bd ac37 993c fcac 8f3e
000001b0: 2fc7 46be e649 38be b73d 33be babe 1e3e
000001c0: 788a de3c acc5 7c3e 4aa2 85bd f0cd 92bd
000001d0: e55e 0fbd 8895 90bd 43a3 fabc fadd 4a3c
000001e0: 3f21 1dbd 87f1 e53d 8012 a2bc dc73 593d
000001f0: d69f 48bd 4613 9abc 18b0 193c 4c90 663b
00000200: bc4b fb3b bc87 c0bc 564a d83c b639 c43d
00000210: fe0c 983d d3ec 983d e6ea a63d 4551 233d
00000220: cb70 bebd fa1c 973d 893d 803e dfe9 6d3e
00000230: dd02 623e bccb 3dbd e45c 9bbd 73fe b03d
00000240: 26c3 133d 8653 fc3c fac9 da3c 3142 663d
00000250: 390b 84be a9c4 93be 1256 323d 8227 193e
00000260: f22f e43e b46c ca3d 8b0e d43d ae1f d23d
00000270: c4a9 abbe db7e 75be c43d 7cbe 9df1 9f3d
00000280: 7f70 6c3d 2621 033d 8dcb ca3c 822b 3c3d
00000290: f384 01bd 4f17 bc3d c451 6cbc 0ea4 133b
000002a0: fee5 1b3b 4db5 6bbc 07bc 1d3c 7648 ebbd
000002b0: e822 aebc 6d57 633d 8293 30be c6af 3abe
000002c0: 3cd7 0c3e e9a9 a33d dda8 be3d b5fa 813e
000002d0: a561 013d 4348 e43b 56d4 213b 9e8a 833d
000002e0: b219 273c ad58 efbb 63b3 e33c faa5 84bb
000002f0: 3a19 803b a82f 843d 7c44 ac3c e419 743d
00000300: 1216 11be 834c 37bd c4c3 ed3d 3aa8 513d
00000310: 0a34 ba3d f9e4 833e 84cd debd 2912 40be
00000320: c79c d7bd aaa9 983c abb1 0abc 8731 5a3e
00000330: 7770 a5bd a82b 633d c0be 683d 0a40 0a3d
00000340: 989e 003d 475f 77bd 3d10 813b ba6b a73d
00000350: 8baf 0abd a694 c33d e7b4 953d 92fe 133d
00000360: 8254 233e e71a e53d 8e07 babc 9633 0c39
00000370: 98aa c5bd 99d6 a3bd bfa6 1cbd d88d 2c3d
00000380: 4eb1 823c 3438 ab3d eab5 7ebd 960f 84bd
00000390: de23 a2bc c529 bc3d 93e0 7dbc d8fd 823d
000003a0: 5758 b4bd 5494 213c 1851 a73d de1a b8bc
000003b0: 46fc 0d3e 3fb1 61be 72c4 a4be bcb5 963d
000003c0: 1692 433d 0c94 233e b04f 993d a804 b93d
000003d0: 70b5 103f 25e7 f83e dc4f f93e eed5 283f
000003e0: deee 963e e645 073e 1b24 3cbc 3a15 dc3d
000003f0: 721f 16be 2430 0a3e 3745 58bc cc01 cb3d
0.1448047 -0.15928106 -0.010343697 0.5043285 -0.43115485 -0.062494125 0.4572802 -0.8374424
-1.5909146 -0.06171221 -0.04768028 0.041263666 -0.120944805 -0.1257236 -0.082456075 -0.07861562
-0.06537064 -0.05286741 -0.008525409 0.009212426 0.0096056 0.041932132 0.060674842 -0.012303522
-0.04745473 -0.021737337 -0.03551328 0.0507821 0.046577018 -0.033262946 0.04012421 0.020840459
-0.017547682 0.014492948 -0.03445633 -0.052425288 0.09749755 -0.03242905 -0.030314744 -0.06534386
0.020773057 -0.011602588 0.06918197 0.0017475066 0.19810969 0.04551131 0.06766274 0.058029044
-0.042153846 0.07402481 -0.022664092 0.046372678 0.03627492 0.0066640973 0.032461423 -0.06609506
0.04391858 0.01937719 0.05846577 0.056800306 0.038295444 -0.016974244 0.12611157 0.11985766
-0.079946 0.072734825 -0.11648778 0.018860841 -0.03428229 0.13043861 -0.08888763 0.13416135
0.03801968 0.03303125 0.022527976 0.04064984 0.022166658 -0.008186184 0.015781967 -0.017535806
-0.02422679 -0.02164346 0.024484023 0.066442825 -0.016217394 0.075979844 0.040557697 0.04623488
0.055364843 0.02436069 0.0035569675 0.07735971 0.035742085 0.035742514 -0.01341334 0.011842107
-0.035949275 0.0064192 -0.043659072 -0.02030221 -0.042113397 0.013589434 -0.04471003 -0.096414395
0.146274 -0.059396118 0.018703304 0.28061664 -0.1941192 -0.1799694 -0.17504011 0.15502444
0.027165636 0.24684781 -0.06525095 -0.07168186 -0.035002608 -0.07059771 -0.030595427 0.012382025
-0.038361784 0.11227708 -0.019784212 0.053089008 -0.048980556 -0.018808018 0.009380363 0.0035181222
0.0076689404 -0.023502223 0.026402634 0.0958132 0.07424353 0.07467046 0.08150272 0.039872427
-0.09298857 0.07378574 0.25046948 0.23233746 0.22071405 -0.046336874 -0.07586077 0.08642282
0.03607478 0.030801546 0.026707638 0.05621547 -0.25789812 -0.28860977 0.043539114 0.14956477
0.4456783 0.09884015 0.10354336 0.10259949 -0.33527958 -0.23974173 -0.24632937 0.07809756
0.057724472 0.032014035 0.024755264 0.04593993 -0.03162093 0.09184133 -0.014423791 0.0022528204
0.002378821 -0.014386487 0.009627349 -0.1148843 -0.021256879 0.055503298 -0.1724377 -0.18231115
0.1375398 0.07991392 0.09309552 0.25386587 0.03158726 0.006966622 0.0024693212 0.064229235
0.010198997 -0.007304272 0.0277955 -0.0040481063 0.0039092572 0.06454402 0.02102875 0.059595004
-0.14168575 -0.0447507 0.11609605 0.051185824 0.09091957 0.2576063 -0.10879043 -0.18756928
-0.1052795 0.01863559 -0.008465211 0.21307956 -0.080780916 0.055461556 0.05682254 0.03375248
0.031401247 -0.060393598 0.0039387033 0.08174844 -0.033858817 0.09549837 0.07309895 0.03613145
0.15950206 0.11186772 -0.02270868 0.00013370658 -0.09651679 -0.07999916 -0.03824496 0.04212746
0.015953686 0.08360329 -0.062185206 -0.06448285 -0.019792493 0.091876544 -0.015495437 0.06396073
-0.08805912 0.009862024 0.08169764 -0.022473749 0.13865766 -0.2204027 -0.32181126 0.07358882
0.04774674 0.15974444 0.07485902 0.09034091 0.5652685 0.4861385 0.4869374 0.6595143
0.29479116 0.13210258 -0.011483218 0.10746236 -0.14660433 0.13494927 -0.013200096 0.09912452

bias f4 [24]
00000000: a561 eb3e 1379 e5bd 9915 3d3e 3e9a 60bd
00000010: f547 ee3d 63da 5ebd ae4d 103d eda5 a83d
00000020: 4529 bc3d 5f3f 93bd 550e f23d 93a8 d5bc
00000030: 2138 3cbc 86d4 bc3d c532 b2bd abc7 623e
00000040: 8040 98bd 27a9 acbd b2fb 473e 0fae b5bd
00000050: 3a3b ea3d 755f c5bc dbbd 263e 0944 7f3e
0.45972934 -0.11204734 0.1846527 -0.054834597 0.116348185 -0.05440749 0.03523033 0.08234773
0.09187559 -0.071898215 0.1181914 -0.026081359 -0.011487992 0.09220223 -0.0870109 0.2214648
-0.074341774 -0.08430701 0.19529608 -0.0887109 0.11437078 -0.024093369 0.16283362 0.24928297

weight f4 [12, 24, 3, 3]
00000000: 95f1 7c3d 758f 8fbb 6198 043c 51bc e73c
00000010: e63a 55bd 0c81 043d d29b 2d3c 1296 823c
00000020: 9ffe d43c d06f fb3b 8ecb 063b 0825 cc3c
00000030: 7d3c abbc 1d3c 403c 8652 8ebb 4999 debc
00000040: 0939 f2b8 38a8 27bc 0d2f 953d 1ceb b43d
00000050: a3df b13d 1104 173d 589c 6dbc 8556 0dbd
00000060: aecd ab3c 2dde 563b efcf 0a3d d7a0 263b
00000070: cb93 d8bb 763c 833c 466c 11bd ceb9 02bd
00000080: cc84 bebc 099a f4bb e236 99bc 01db c3bc
00000090: c9c0 993d 69a0 be3d f708 e9bc acf9 c3bc
000000a0: 20e2 893d 89f5 43bc 91d9 f83c f0b3 efbb
000000b0: 084c acbc 96d5 b3bc f853 9cbc fd88 a63c
000000c0: 4a87 983c b8a5 c8bc 5225 d43b ad30 8fbc
000000d0: 14a7 d3bc 3b7f 753b 0a5d 263d c4ca 20bc
000000e0: c971 c73c d176 4f3d d185 d5bc 5094 943c
000000f0: ffb2 473d f613 78bc 1f5b 053d 646a 9cbc
00000100: a6e7 02bc 3c6d 88bc 22d5 13bd 89c0 35bb
00000110: 1fa2 3bbd 79c0 9cbc 4598 31bd c5cd a9bc
00000120: 4f70 323d 27f3 eebb 54d7 943c 95ca ed3c
00000130: c004 213c 06a1 87bc 3b3f ebbc 2a02 8c3c
00000140: 8a96 b33b 2680 033c 155d edbc d6af 44bc
00000150: e5b6 33bd 13ea 1cbd f8cc d23a 3fce a7bb
00000160: ac5f 79bc 9b45 b9ba 51c1 ecbb 91e2 b93c
00000170: eab5 5c3a 5411 afbc 9230 e93a b758 e8b9
00000180: e0df b93b e89a b4bc 7df6 debc d179 bdbb
00000190: 596c 09bd 92ed 403d bde9 01bd b61b a0bc
000001a0: 56e1 d7bc 827e 073d c531 7d3d b14a 653d
000001b0: 483e 33bd 4f67 f23c ec66 3c3d 36b5 b23c
000001c0: 8e40 2f3d 44bb 503d 7405 693c 2fd4 4c3d
000001d0: e60f e1bb 145c 513d 9344 5bbd eca2 aabc
000001e0: 3d5a bf3c 4d6d 6c3c 41d3 bdbc 2081 96bc
000001f0: 1e96 d53b 92e7 2ebb 387e af3b fa3e b6bc
00000200: af2d b8bc 98ca 44bc 6585 8c3c 0057 6bbc
00000210: c753 893b a964 243b b0fc 4dbb 15d2 05bd
00000220: cd72 2bbc fd7c c2bd 8d98 753d 0112 de3d
00000230: d270 073d 7fe6 8d3c e908 823d bd01 8fba
00000240: 2b25 8dbd a1e5 a5bc 539c 113b dbe7 43bd
00000250: bec9 873c 69b8 b63c 1d8e 003d 2456 ac3c
00000260: a22e 613d dede 30bd 65bc 81bc 6f53 12bc
00000270: 8930 f6ba a620 eebc f2f9 ebbc 590b 9cbb
00000280: 09ed 50bb f478 d6bb 0601 08bc 4f0c ab3c
00000290: e5e1 23bd bbea 37b9 8937 983d 605d 4f36
000002a0: 3a77 8a3a e326 d83c 1edb 7f3b 4279 4cbd
000002b0: 6041 5eb8 aab8 fa3c a04d 833c eebe 853c
000002c0: e327 363d 6004 5f3c fb41 70bd 45e9 93bc
000002d0: 4b1b 86bc 2973 d03c b7c9 8fbc 4240 063d
000002e0: 2f04 51bc f8a4 60bc 121a e2bc 65cf a4bb
000002f0: 72b9 b2bb b87b d33c 62b9 153c de5d 37bc
00000300: 4357 67bc 75d6 72bc 22e5 1f3d 30fb 0d3d
00000310: cbe0 bb3b 5bab 073c f45b 33bb 2703 8d3b
00000320: 21e9 cbbb 3fa9 973d 1bab 873d 6b70 aebc
00000330: 543f 0dbd 6bf3 51bd 2058 00bc 1930 ab3d
00000340: 30c2 693d f2f8 e83c 1ec4 0c3d 1a3e 1b3d
00000350: 9dda 4dbb f9b2 d83c 6ce3 5c3d 16e1 9fbc
00000360: 0040 3b3d b15b 543d 8035 c8bb 15ff a33b
00000370: fcd5 51bc 8ac8 01bd 3a2f 003b 2ea3 af3c
00000380: f548 b33b 6807 1bbd de7f f33b 3687 33bc
00000390: 8aae d2bc 10ef 85bc c87c b23c 2310 81bc
000003a0: eb2b abba 0fb7 c53a 947c 9ebc 0cfd 6b3d
000003b0: 8878 9c3d 8ace 8ebd 5828 bc3c 33e6 74bd
000003c0: 04fc 583b 5dd1 c03c c213 a9bb 4eaf b13c
000003d0: 9e9c 2b3b bc7a b33c c344 c4bc 2a7c 8bbb
000003e0: da7a ec3b 885b 0cbc c3fc 19bc ba28 f5bc
000003f0: 9de8 513d a7f7 84b9 dcd1 543d 1fbb 57bb
0.061753828 -0.004381115 0.008092971 0.028288038 -0.052058123 0.03234963 0.0105962325 0.0159407
0.026000319 0.007673241 0.0020568105 0.024920002 -0.020902866 0.011733082 -0.0043433337 -0.027172701
-0.00011550083 -0.010232978 0.07284365 0.08833906 0.086852334 0.036869112 -0.014502607 -0.03450634
0.0209721 0.0032786236 0.033889707 0.0025425458 -0.006609415 0.016020041 -0.03550365 -0.03191548
-0.023256682 -0.0074646515 -0.018702928 -0.02390814 0.07507474 0.093079396 -0.028446658 -0.023922764
0.06732583 -0.011960396 0.030377181 -0.0073151514 -0.021032348 -0.021952432 -0.019083008 0.020328993
0.018619198 -0.024493083 0.0064741755 -0.017479265 -0.025836505 0.0037459868 0.040616073 -0.009813968
0.02434625 0.05065042 -0.026064785 0.018137127 0.04875469 -0.015141478 0.032557603 -0.0190937
-0.0079898 -0.01665365 -0.03609193 -0.0027733168 -0.045808908 -0.019134747 -0.043358106 -0.020728001
0.043564137 -0.0072921696 0.018169083 0.029027263 0.009827793 -0.016556274 -0.028716674 0.017090876
0.005480592 0.008026158 -0.028975049 -0.012004813 -0.043875594 -0.038309168 0.0016082814 -0.005121022
-0.015220564 -0.0014135124 -0.0072251935 0.022691043 0.00084194413 -0.021370567 0.0017790964 -0.00044316586
0.00567244 -0.022046521 -0.027217144 -0.005782344 -0.033550594 0.047101565 -0.03171705 -0.019544464
-0.026352566 0.03307963 0.061815042 0.055979434 -0.043760568 0.029590277 0.04599659 0.021814924
0.042786174 0.05095984 0.0142224915 0.05000704 -0.0068683503 0.051113203 -0.053532194 -0.02082964
0.023358459 0.014430356 -0.023172023 -0.018372118 0.0065181395 -0.002668832 0.0053556226 -0.022246826
-0.022482721 -0.012011193 0.017153451 -0.014364004 0.0041908952 0.0025084412 -0.003143113 -0.032671053
-0.010464382 -0.09496496 0.059959937 0.10843278 0.03306658 0.017321823 0.06349356 -0.0010910552
-0.06891855 -0.020251097 0.002221842 -0.047828536 0.01657569 0.02230473 0.03138553 0.021037169
0.054976113 -0.043181293 -0.015836904 -0.008931025 -0.0018782775 -0.029068302 -0.028805707 -0.004762095
-0.0031879565 -0.0065451805 -0.008301025 0.020879893 -0.04001035 -0.00017539684 0.074324675 3.0899755e-06
0.0010564097 0.02638573 0.0039040516 -0.049920328 -5.298981e-05 0.030605633 0.016028225 0.016326394
0.044471633 0.013611883 -0.058656674 -0.018055568 -0.016370436 0.025445538 -0.01755224 0.032776125
-0.012757345 -0.013711207 -0.027600322 -0.005029606 -0.0054542357 0.02581583 0.009138437 -0.011191813
-0.014119926 -0.014821638 0.039036877 0.03466338 0.0057335845 0.0082806 -0.002736804 0.0043033543
-0.0062228595 0.07405328 0.06624433 -0.02129384 -0.034484223 -0.051257532 -0.007833511 0.08358783
0.057069957 0.028439019 0.03436672 0.03790102 -0.0031410821 0.026452528 0.053927824 -0.019516509
0.045715332 0.051845256 -0.0061098933 0.0050047734 -0.0128073655 -0.03168539 0.00195594 0.021440115
0.0054713436 -0.03784886 0.0074310144 -0.01095753 -0.025717992 -0.016349345 0.021788016 -0.015754765
-0.0013059353 0.0015084463 -0.019346513 0.05761437 0.07640177 -0.06972988 0.022968456 -0.059789848
0.0033109197 0.023537332 -0.005159826 0.021690037 0.002618588 0.02190911 -0.02395857 -0.004256745
0.0072167935 -0.008566745 -0.009398642 -0.029926647 0.051247228 -0.00025361517 0.05195795 -0.003291793

bias f4 [12]
00000000: 0d2a 1b3e 491a 1d3e 48e4 5c3e 3e1e 4d3e
00000010: 8f1b 82bd 6b43 7cbd 53d4 62bd 2f0a 49bd
00000020: 5da3 2abb 639b e1bc fb7e 84bd be3c 83bd
0.1515276 0.15342058 0.21571457 0.20031068 -0.06352913 -0.061587732 -0.05537827 -0.049081977
-0.0026037314 -0.027539914 -0.06469532 -0.0640807

weight f4 [3, 3, 1, 1]
00000000: 26c7 9bbd 0aae 883d 7e11 6e3d 049a 00bd
00000010: 89c0 5c3d 6b81 8a3b a836 8d3c b5cd 103d
00000020: 339f d83c
-0.07606344 0.0667382 0.05812215 -0.03139688 0.053894553 0.0042268536 0.017237976 0.035352428
0.0264431

bias f4 [3]
00000000: 7faa 173e e34f 23bd cc03 85be
0.14811133 -0.039871108 -0.2597946
